final/best_model.pt (torch, 55481 bytes, 5 tensors)

feature_extractor.0.weight f4 [64, 5]
00000000: 3b8e ebbe a77d 293f 893b 233e 94ae 80bf
00000010: 150f cf3e 4942 53be abaf 6bbe 403f d63e
00000020: c761 513f 87aa babd 392b 67bf a8f8 75bf
00000030: 46fa 9a3e 9fa1 dbbd 800e 163f 4b6c 953b
00000040: df8a 7e3f 28e4 38be 9a05 78bf 0a9f debe
00000050: 510a b03d 22db 353f 8a34 bcbd bf26 ea3e
00000060: d012 b0be fd2d 47be fb17 e1bd 8332 763c
00000070: 7156 25be 9b0a 40bd 28e9 dc3d 6c27 6ebf
00000080: 2f70 21bf b599 4f3f d34b d53b 0ee5 0a3d
00000090: b583 803e d9ab b8bd 7dea b43e 5763 613d
000000a0: 69a4 8fbe 4918 bdbd 1456 2bbd d5f8 36be
000000b0: 6e88 82be afab cc3d 6e2e 87bf 2360 debe
000000c0: 94f8 123e c054 93be f2b6 1dbf a3e1 2b3f
000000d0: 23d3 a8be 3f02 843d bd7d 243f fbb2 883d
000000e0: 9235 263c 7814 503d 6d7c a23e 29a6 80be
000000f0: a42a a8be 35d6 243f d7b1 a83e 4757 bf3e
00000100: d9ab 94bf a7dd 1ebe 2938 d93e d80f 3cbf
00000110: 1e96 0b3f 529d 2b3f b631 61be 5091 3f3e
00000120: c368 48be 2194 62be 4f36 21be caf6 61bf
00000130: c2e8 8d3e 8137 193f 4c77 8e3e ba38 ec3d
00000140: d186 1dbe 7ad5 1abf da55 ca3d 13ff 13bf
00000150: a663 513f ac9b 593c cb8c 263e 80b8 0f3d
00000160: 8261 81bf 1ebc 2fbe f584 acbc a2ad 4f3f
00000170: 82b6 d03d 1acc 473f a2e8 c3be 0770 c13d
00000180: a84d 2cbf cab5 983c ab08 11bf 5733 9e3c
00000190: f884 d6bd 5580 debd 98dc c9be 65eb 8bbd
000001a0: b37d 653e d7d1 673d 97a0 61bd 3a94 cbbe
000001b0: a721 983e f714 4d3c f8ef 453c 5350 2d3f
000001c0: 65c6 3fbd 1c59 1dbe deba f8bc a2b2 073d
000001d0: fad2 efbf 0564 61be 8e8e 673f ab04 38be
000001e0: 86f3 81be 9655 8dbe f898 ce3e a6be dbbf
000001f0: 35ef 7d3e d81f 5d3d eacd 26bf 9141 86be
00000200: cb64 35bf d5a1 893e 05bb d03d da09 f23e
00000210: 0e29 9bbf e672 5c3d 88b0 11bf 6f46 0dbe
00000220: 5c96 abbf 7885 c13e f3e1 9bbe 1ef2 0dbf
00000230: 369c c83d 77a2 143f 8324 00be caee 0abf
00000240: 06b8 c7bd 26ec f5ba 3b3e 0dbf 1f51 fe3e
00000250: f8cd ae3d 727f a5bd 2e8a a1bb c9cb 053f
00000260: 5aa0 913d b759 21bf c31b b23e b540 c8bd
00000270: bbdd 11be e729 49be ddaf a1bd a5a2 d7bd
00000280: 602a afbe 2967 9dbf 6e66 d03e 410e 943f
00000290: c809 63be 490d 6ebd aebd b1bd a5df 093f
000002a0: 3a5c 11bd a12e 73bf 2e8b 11bd 684e 3c3f
000002b0: 97aa 393e 3b19 c23e 3c71 e23c a73f a73d
000002c0: bb94 1cbf 9991 f43b 1cec 93bd 13db c13d
000002d0: ca19 bcbe 41c3 64be 3921 67be 0ddd 2abe
000002e0: 4917 453f 3f0b 0c3d 70b4 67bf c87e e1be
000002f0: 10f0 363f 72db b83e 4844 01bd bfb9 e7bd
00000300: 08bf abbd eb80 9fbe ae7f 4d3e 98b5 503d
00000310: 9c26 b43e acbf bebe 28ea 0ebf d29a 3bbf
00000320: 8b3f 063e d50b cc3d 2716 8abe 6280 59be
00000330: 1fe2 d9bf ec31 f63c 30cc 8e3e 1a9f bcbe
00000340: 80d2 a9bf a809 583e 2db8 dabc 9962 5f3f
00000350: c037 6bbe 9096 2a3f 2109 b73d 03fd a8be
00000360: fe33 33bf a559 fb3e c3fb 3a3f 9dc4 1b3e
00000370: 5842 993d 9bcd 933e 1143 f7be d84d 83bf
00000380: 3480 b53c d8a1 eb3a 0666 c53d b6fd b4bc
00000390: 593c c73e d718 09bd 011f bfbc 8749 50bf
000003a0: 2206 883e 984e aabf fb09 7abd da38 0cbe
000003b0: 05ef e6bd 3adf c63d 89d0 8dbe 0676 74bd
000003c0: 9a5b 263d 8aa7 323d 9a74 583d 706e 143e
000003d0: d896 11bd ef6a 563c 5761 12bf 32bf 053e
000003e0: 70e5 a83f 6c37 09bf c6ae f23b fc71 99bf
000003f0: 7a5d a0bd ed9e 593f 511a eabe ec10 8bbe
-0.4600695 0.66207355 0.1594068 -1.0053277 0.40441194 -0.20630755 -0.23016231 0.4184513
0.8178982 -0.09114557 -0.9030033 -0.96082544 0.30269068 -0.10724186 0.58615875 0.0045600287
0.9943065 -0.18055785 -0.9688355 -0.43480712 0.08595718 0.71037495 -0.091897085 0.45732686
-0.34389353 -0.19451137 -0.10990902 0.015026691 -0.16146256 -0.046885114 0.107866585 -0.93028903
-0.63061804 0.81093913 0.006509283 0.03390985 0.25100484 -0.09017152 0.3533515 0.05502638
-0.28055122 -0.09233148 -0.041830137 -0.1786836 -0.25494713 0.099936835 -1.0561044 -0.43432721
0.14352638 -0.28775597 -0.6160728 0.6714117 -0.32973585 0.06445741 0.6425436 0.06674763
0.010144608 0.05080077 0.31735554 -0.2512677 -0.32845032 0.64389354 0.3294818 0.37371275
-1.1614944 -0.15514241 0.4242566 -0.73461676 0.54525936 0.67036927 -0.2199162 0.18707776
-0.19571213 -0.22126819 -0.15743373 -0.88267195 0.27716643 0.5985032 0.2782539 0.11534257
-0.1538346 -0.6048199 0.09879656 -0.5781109 0.81792676 0.013281744 0.16264646 0.035088062
-1.0107882 -0.17161605 -0.021059493 0.8112432 0.101910606 0.7804581 -0.38263422 0.09445196
-0.67305994 0.018641371 -0.5665385 0.01931159 -0.104745805 -0.10864321 -0.39426112 -0.06832007
0.22411232 0.056596603 -0.05508479 -0.39761525 0.29713175 0.012517205 0.012081139 0.6770069
-0.046820063 -0.15366024 -0.030362543 0.033129342 -1.873626 -0.2201081 0.90451896 -0.1797053
-0.25381106 -0.2760436 0.4035108 -1.7167556 0.24798281 0.053985447 -0.6515795 -0.26221898
-0.7085692 0.2688128 0.10191921 0.4727314 -1.2121904 0.053820513 -0.5690999 -0.137964
-1.3405261 0.3779714 -0.30445823 -0.55447567 0.0979542 0.580604 -0.12513928 -0.54270613
-0.097518966 -0.0018762394 -0.5517308 0.49671265 0.08535379 -0.08080949 -0.0049298024 0.52264076
0.07110663 -0.6302752 0.34786806 -0.09777967 -0.1424474 -0.1964489 -0.078948714 -0.10529069
-0.34212017 -1.2297107 0.40703148 1.156685 -0.221717 -0.05811814 -0.08678757 0.5385688
-0.035488345 -0.94993025 -0.035533123 0.7355714 0.18131481 0.37909874 0.027641885 0.081664376
-0.61164445 0.0074636457 -0.07222769 0.09465613 -0.36738425 -0.22340108 -0.22571267 -0.16685887
0.76988655 0.034190413 -0.905097 -0.4404204 0.71460056 0.36104923 -0.03155926 -0.11314725
-0.08386046 -0.31153044 0.20068237 0.05095443 0.35185707 -0.3725561 -0.55826044 -0.7328311
0.13110177 0.09963194 -0.26970026 -0.2124038 -1.7022132 0.030053101 0.27890158 -0.36840135
-1.3267365 0.21097434 -0.02669915 0.87259823 -0.22970486 0.6663599 0.08937288 -0.33005533
-0.7000121 0.4909183 0.7304041 0.15211721 0.07483357 0.28867802 -0.48293355 -1.0258131
0.022155859 0.001797731 0.096386 -0.022093635 0.3891323 -0.033470955 -0.023330214 -0.81362194
0.2656718 -1.3305235 -0.061044674 -0.13693562 -0.11276058 0.09710546 -0.27698162 -0.05968287
0.0406147 0.04361681 0.052845575 0.14495254 -0.035544246 0.013087018 -0.5717978 0.13061216
1.3195019 -0.5360019 0.0074060885 -1.198791 -0.07830329 0.85008126 -0.45723203 -0.27161348

feature_extractor.0.bias f4 [64]
00000000: 47bd 333f fad0 2e3f 55b3 b23e ef57 313f
00000010: eff0 38bf 02dc 77bd ea38 f0be 9a42 e8be
00000020: a472 97be b5aa 9bbe 198e 9e3e 4f79 01bf
00000030: bcbf 663f 9739 bfbe d457 53be 8189 0e3e
00000040: 4af3 1fbf 5645 f53e 9e56 d83d d77b 26bf
00000050: 56f0 cabe 7ee0 4c3e 8f5e 8d3d 38bb 1d3f
00000060: ebf6 363f f3c3 f03e 9b3b a43e 664d 5c3f
00000070: 7f3f 34bf 3c7c f8be be54 54be 4f83 be3d
00000080: 167d e23e 54b0 053f 51b8 9ebe 9483 f8be
00000090: 3383 b7bd e342 073e c12d 353f 472c f33e
000000a0: 0bc4 fabc f8a0 ab3e 156e 973e 1604 373f
000000b0: 59a5 ecbc 3239 ec3e 7ab1 2b3f 9839 90be
000000c0: 390f 83be fcce 3abe 0839 1d3f def1 0fbf
000000d0: df54 d73d d1bc 773f 0fbd d43d 5621 903f
000000e0: b327 fdbe 9c22 85be 168d e73e d73e 9c3e
000000f0: ea71 4f3f c9d7 843e 9d5d 2dbf 6c5a dfbe
0.7021069 0.6828762 0.34902444 0.692748 -0.72242635 -0.06051255 -0.46918422 -0.45363313
-0.2957965 -0.30403677 0.30967787 -0.5057573 0.90136313 -0.37348625 -0.20638973 0.13919641
-0.62480605 0.47904462 0.10563396 -0.65032715 -0.39636487 0.20007512 0.06902801 0.616138
0.71470517 0.47024497 0.32076725 0.860556 -0.7040939 -0.48532283 -0.20735452 0.09302389
0.44236058 0.5222218 -0.30999997 -0.48537886 -0.08960571 0.13209109 0.7077294 0.47494718
-0.030611059 0.33521247 0.29576173 0.7149061 -0.028887438 0.46137387 0.6706768 -0.2816894
-0.2559755 -0.18243021 0.6141515 -0.56228435 0.10514235 0.96772486 0.103876226 1.1260173
-0.4944435 -0.26002967 0.45224828 0.30516693 0.81033194 0.2594588 -0.6772097 -0.43623674

basket_classifier.weight f4 [194, 64]
00000000: 6db4 57be b3cd 8cbc 1a1f a5c0 d138 1dbe
00000010: 011b 95bd 5d38 dabd 421a 633c 193d 05bd
00000020: d0b0 bfbd a57e 063d edc6 f5be a42a 59bd
00000030: fc6c f9bc e839 d33d 7413 9abd 3fd6 10be
00000040: 3f7e d8be 00b1 afbd acdf 483d 9e9a 24be
00000050: a047 48bd b5bf dcbd 81ce 193c b724 51be
00000060: 2673 51bf 3f14 a3bd 8b60 04bd 7083 4d3d
00000070: be38 1abd fb7d 88be fe33 cc3d 8057 2fbd
00000080: ce93 bbbe 4644 60bd 05c0 9e3d 5036 e9bd
00000090: 1f22 f5be 2d16 00be e88e 153c f2dd 523d
000000a0: fc73 503e 7451 1f3e 82bd 3d3e c567 70bd
000000b0: e763 163d 4a6b 243d 1358 03bf 79bd e7bc
000000c0: a602 e6bd 18a2 693d 2407 9cbc e9cf 133e
000000d0: c355 02bf 36a8 6bbe c86a 40bd 59de 5abf
000000e0: 2f1d 5fbe bba1 8bbb eee1 d43b ecc9 e63d
000000f0: 5d62 8cbe 8958 05bf c0f2 b2be 8522 8abe
00000100: d2b8 893d 46ea a9be e3be 7bbd b552 8fbe
00000110: 65bc ddbc 6d16 ca3c 3131 64be e534 18bc
00000120: 74bf c73d 025e 28be 1c46 c23c ca34 d83c
00000130: 31c9 2fbe 4061 a6be ac3d a5bd 1d08 7f3d
00000140: b89a aebd d2b3 88be 3a34 54bc ec18 c7bc
00000150: 4f9e c8bb 5adb 27ba 63d8 07be 1efd c3bd
00000160: ad17 5bbd 0c28 05bd e41b 2f3c 7ca7 0ac0
00000170: 8323 5ebd dfa2 6cbd 6b16 babc 3d5b bcbd
00000180: b755 17bf cb08 cd3d cd07 8cbd a174 313d
00000190: 6dd9 a53d c4dd adbd 1442 3cbc 8690 4fbe
000001a0: cb16 56be 2fd9 193d fe76 10bc f6f9 ccbe
000001b0: 7244 033e d7a1 85bd 0590 17be 0756 233d
000001c0: 7841 b4b9 1e56 edbd 8868 85bc b446 85be
000001d0: ca30 cb3c 61f4 5ebe c6c9 ba3b 8582 edbe
000001e0: aaa1 ea3c af44 123c 1076 fe3d 96bd dfbd
000001f0: 4ebf 1abe 675c 3bbe 0568 fbbe 241a 903d
00000200: b409 b33d 0b9c c2bd 01e0 89bf 5e08 e7be
00000210: 5ef3 51bb 86be 7fbd cc98 bb3d e831 e53d
00000220: 30bc 9e3d cfb9 90bd 1916 58c0 e233 81bc
00000230: 16f1 c4bf 39d0 a0be 6f7c 66bb 5c48 053e
00000240: 5f1b 40be 9f0e f3be 8337 d1bd 1510 e8b8
00000250: 0eaa fcbd bed4 123e b081 9a3c e72a 87bd
00000260: e6cf 613e 4814 2e3d 8f2a 3f3d 0720 b6bf
00000270: 4160 0cbe bfe1 91bc 151d 61bc 0939 693d
00000280: 0b2f 55c0 b599 103e 0584 7dbc 9c1f 043e
00000290: 2e6a c0c0 be5f 393e 7416 07be 1582 96be
000002a0: 0074 3bbe 062f 00bc 1985 21be 1bf5 03be
000002b0: 7f3d 523d 1f9b 8cbd 49c8 5abd 3026 ac3d
000002c0: 3b4a 003b 101e aa3d fb22 f73d f148 bcbc
000002d0: 3bb8 1cbe 093c 81be 65dc 873d 1a86 63c0
000002e0: c5fd dcbe 3301 0abe 31e3 17bb 36b9 a8bd
000002f0: 7861 2dbe 80ac 95c0 a6d6 1a3f 2df6 4a3e
00000300: 4fec 0f3d 0500 a4be 0ebb c6be df97 7ebd
00000310: 879c 163e d97a 8fbd 775d e83d 8989 1d3e
00000320: 5356 023d 24a0 39be 2e20 61be 1ce4 c53d
00000330: a52b 193e 9530 323d 44ff 29bc c9ed 543c
00000340: a0f8 3d3d f1f3 87be a379 f3bc 79c1 063e
00000350: c19a b6bd 548c 71bd 6a3b 0cbd 7f37 0abe
00000360: c61b 233e 1446 95bb 014a d0bd 95ab 913c
00000370: c47c 9f3d 1336 f43d 36f0 a0bd 45d7 95bd
00000380: 9626 fdbe 6a8a a03d 80eb 54be 9419 123e
00000390: c6cb d8be abec 443e 437e 40be 340c 0ebe
000003a0: 2f8c 9c3d 741f 9bbc cc73 94bd 8b96 bbbe
000003b0: dde5 60bd a531 63be 3883 b1be 2171 a43c
000003c0: 7b04 473d 5327 0c3d f45f cfbe 33aa ce3d
000003d0: 2c20 7b3d 9345 0bbf 775e 90bc 69bf 95bd
000003e0: 00eb 6fbe c56a adbd 3f38 21bd 1205 ffbd
000003f0: ffa6 7fbe 695e 00be b80b 973d c83e adbd
-0.2106492 -0.017187929 -5.1600466 -0.15353705 -0.07280541 -0.10655282 0.013861241 -0.03252897
-0.09359896 0.03283562 -0.4800333 -0.05301918 -0.030447476 0.10313779 -0.07523242 -0.14144228
-0.42283818 -0.08578682 0.049041435 -0.16074607 -0.048896432 -0.10778753 0.009387613 -0.20424162
-0.8181633 -0.07962846 -0.032318633 0.050174177 -0.03765177 -0.26658615 0.09970854 -0.042808056
-0.36636204 -0.05475261 0.077514686 -0.113873124 -0.47877595 -0.1250846 0.00912831 0.051481195
0.20356745 0.15558416 0.18529323 -0.058692712 0.036716368 0.04014138 -0.51306266 -0.02828859
-0.11230974 0.05703935 -0.019046374 0.1443478 -0.5091211 -0.23013386 -0.046976835 -0.85495526
-0.21788476 -0.004261223 0.0064966595 0.11268982 -0.27418795 -0.5208822 -0.3495083 -0.2697946
0.06724705 -0.3318655 -0.06146134 -0.27992788 -0.027067373 0.024668897 -0.2228439 -0.009289955
0.09753314 -0.16442111 0.023715071 0.02639236 -0.17166592 -0.3249607 -0.080684036 0.062263597
-0.08525604 -0.26699692 -0.012951905 -0.024303876 -0.0061223875 -0.00064032304 -0.13266139 -0.09569763
-0.053489376 -0.032508895 0.010687802 -2.1664724 -0.054233085 -0.057772513 -0.022715768 -0.0919709
-0.59115165 0.10011443 -0.068374254 0.043324117 0.08098111 -0.08489564 -0.011490364 -0.20269975
-0.20907132 0.037560638 -0.008817432 -0.40034455 0.12819079 -0.06525009 -0.14801033 0.039876964
-0.00034381053 -0.11588691 -0.016285196 -0.26030505 0.024803538 -0.2177291 0.005700323 -0.4638864
0.02864154 0.008927508 0.124248624 -0.109248325 -0.1511204 -0.18296967 -0.49102798 0.07036236
0.08742085 -0.09502419 -1.0771486 -0.4512357 -0.0032035927 -0.062437557 0.09160003 0.111911595
0.07750738 -0.0706669 -3.3763487 -0.01577181 -1.5386074 -0.3140886 -0.0035169383 0.13015884
-0.18760441 -0.47472093 -0.10215666 -0.000110656176 -0.12337123 0.14338967 0.018860668 -0.0659998
0.22051963 0.04249981 0.046671446 -1.4228524 -0.13708593 -0.01780784 -0.013739844 0.05693916
-3.3309963 0.14121135 -0.01547337 0.12902683 -6.0129614 0.18102929 -0.13192159 -0.2939612
-0.18305969 -0.007823711 -0.15773429 -0.12886469 0.05132818 -0.068655245 -0.053413663 0.08405721
0.0019575495 0.08306515 0.12067219 -0.022984 -0.15304653 -0.25241116 0.06633834 -3.55506
-0.4316236 -0.1347702 -0.0023176188 -0.08238451 -0.16931713 -4.677307 0.6048378 0.19820471
0.03513747 -0.32031265 -0.38814586 -0.062156554 0.14708148 -0.07005853 0.11345952 0.15384497
0.031820606 -0.18127495 -0.21984932 0.09662649 0.14958055 0.043503363 -0.0103758015 0.0129961455
0.046379685 -0.265533 -0.029721087 0.13159741 -0.08916236 -0.058971718 -0.03423635 -0.13497733
0.15928563 -0.004555473 -0.10170365 0.017782012 0.07787469 0.11924376 -0.078583166 -0.0731645
-0.494435 0.078389004 -0.20792961 0.1426757 -0.42342967 0.19230907 -0.18798165 -0.13871843
0.076439254 -0.018935896 -0.07248649 -0.36638293 -0.054906715 -0.22186907 -0.34670424 0.020073475
0.048588257 0.03421719 -0.40502894 0.10091057 0.06130998 -0.54403037 -0.01762317 -0.07311899
-0.23429489 -0.0846763 -0.03936028 -0.12452139 -0.24966048 -0.12536015 0.07375282 -0.0845924

basket_classifier.bias f4 [194]
00000000: 3c16 c73c 5633 cdbd c6bc 8dbe 7d99 cebe
00000010: 5040 14be 86ce 9dbd e6ad 52be 343e d1bd
00000020: b20c 1bbe 0d96 9dbe da03 6a3d 7f89 30bd
00000030: 9d67 01be efa0 ad3d 11d3 11be 244d babe
00000040: 01ff 233d 99f2 f33d 97cb 9a3c 82f8 ff39
00000050: 7a3b 7abe a2ac aa3d 4c50 a53c 42f8 5cbd
00000060: 312f 8bbe 7c66 23be 05ea b8bd 1c01 13bd
00000070: 1196 cbbd bdb4 d4be 2f51 45bb d3ea 32be
00000080: 430d 86be 8343 e93d c98d 7abd 2381 08be
00000090: 3cac 9abe fa4c e9bd f444 9fbe 78b3 873d
000000a0: 52e4 4bbe 3dae 6f3c 625c d1bd 8005 24bd
000000b0: 6d15 62bd 943f 0cbd 9be7 ee3d e42c 80bc
000000c0: d293 63bd c05e b1bd 2a02 13be 7eb8 71bd
000000d0: ab2f 82be 3385 683d 20cf 0dbd b8ff f5bd
000000e0: e424 643e e82e 19be 62ea 81bd 6260 203f
000000f0: e3cd 04be e83e 1cbe 594a c6bd a9ce 92be
00000100: 8835 b5bd c7b0 43bd c4b0 09be 6932 13be
00000110: 3a8d 84be 8a27 02be 91e9 5dbe 136c fdbd
00000120: 2033 13be 2d5c cb3d d953 793e 5eca 393e
00000130: d9f1 9dbd 41e7 303f fc07 6dbe 179e 7f3d
00000140: e533 14bd f8bc 20bd 3d7a 153e 3444 733d
00000150: 1179 2fbe 66bc a7bc dbfa e4bd 66ba d33d
00000160: 478e adbc e8db 4fbd 2e58 56bd b72c 8c3c
00000170: 9e42 d5bd 92f4 55bd 7296 e4be e447 b8bc
00000180: 603e 9bbe 4e62 15be ee0f b03d b95f 54be
00000190: c867 04be 25ba 213d ff2a d13b cee1 c9bd
000001a0: f6e2 1a3e 4bd2 2b3e 25ef cf3d 68c1 19bd
000001b0: d75f 41be fbe1 823e 5705 8a3d 33ab 5cbc
000001c0: f7c4 963d 8511 bcbd a854 913d 3866 d7bc
000001d0: 954a 71be e2c0 abbc ddf6 a8bd d377 fdbd
000001e0: 0e5a 38be 19d0 5bbe 739a 8c3c a161 5dbe
000001f0: 8c0d 2cbd d1cc a9be 480a 43be dac7 06bd
00000200: 3bd5 563e fe7d 223f 4c6e 5a3c 0421 243e
00000210: 3b9e ba3e 286b 233e f210 9e3c 16fa eabd
00000220: ae7e b33c 17c4 d93d 0d4c 8fbd 5cea 00bd
00000230: 9b0b 50be 9d16 f13c 77bf 3bbe ae13 0a3b
00000240: 84cc af3a 0860 ed3d e7a9 dd3b d488 7fbe
00000250: c0b4 6fbe dd59 f8bd d811 a33c 7b29 3f3d
00000260: 6b30 3b3e cff8 fe3d 7a16 e33d d080 87bd
00000270: 47db dfbc b66a 0e3d 4804 723e e061 cfbd
00000280: cd26 1f3e bbf1 9bbd a286 673e 63bf d6bc
00000290: d141 b43e 95ae 87bd babe 1abd ce8c f8bc
000002a0: bac0 383e 597c 48be b31a 153d c72f 6dbd
000002b0: dbf7 45bd 6bb2 f3bd 3811 4abe a6af e0bd
000002c0: 7396 17be 30e5 0fbe b083 20bd 034c 0bbe
000002d0: b583 e33e 050c 893d 1c77 8cbe 631f bfbc
000002e0: 212f 03be ec26 403d 4a69 c1bd 69b4 f3bd
000002f0: 8677 fcbd b6e3 f93c f6b2 2ebd 3500 6ebe
00000300: 5277 8b3c 48cc 97bd
0.024302594 -0.10019557 -0.27683085 -0.40351477 -0.14477658 -0.07705407 -0.2057415 -0.102169424
-0.15141562 -0.30778542 0.05713258 -0.043099876 -0.12637182 0.08477961 -0.14240672 -0.3638698
0.040038113 0.11911506 0.018895907 0.00048822543 -0.24436751 0.08333708 0.02017989 -0.053947695
-0.27184442 -0.15957063 -0.09029011 -0.03588973 -0.09940732 -0.41544142 -0.0030108204 -0.17472391
-0.26181993 0.1138983 -0.061170373 -0.13330512 -0.3020953 -0.11391635 -0.31107295 0.06626028
-0.19911316 0.014628944 -0.10222699 -0.040044308 -0.055196214 -0.03424032 0.11665269 -0.015646406
-0.055560894 -0.0866065 -0.14356294 -0.059013836 -0.25426993 0.056767654 -0.034621358 -0.12011665
0.22279698 -0.149593 -0.06343533 0.6264707 -0.12969165 -0.15258372 -0.096821494 -0.28673294
-0.08848101 -0.04777601 -0.13446337 -0.14374699 -0.25888997 -0.12710395 -0.2167113 -0.12374129
-0.14374971 0.099296905 0.24348392 0.18143603 -0.077121444 0.69102865 -0.23147577 0.062406626
-0.036182303 -0.039242715 0.14597411 0.059391215 -0.17136027 -0.020475578 -0.111806594 0.10338287
-0.021186007 -0.05074683 -0.05233019 0.017111165 -0.10413097 -0.052235194 -0.4464603 -0.022495218
-0.30321026 -0.14588282 0.08596788 -0.2073964 -0.12930214 0.039484162 0.0063832994 -0.09857522
0.15125641 0.16779439 0.10153035 -0.037537962 -0.18884216 0.25563034 0.067393 -0.013468551
0.07361787 -0.09183029 0.07096225 -0.026293859 -0.23563607 -0.020965997 -0.082502104 -0.1237637
-0.18003103 -0.21466102 0.01716349 -0.21619274 -0.042005107 -0.33164075 -0.1904689 -0.032905437
0.20979778 0.634735 0.013331961 0.1602822 0.36448845 0.15958846 0.01929519 -0.11473481
0.021910992 0.10633104 -0.069969274 -0.031473503 -0.20316927 0.029429728 -0.18334757 0.002106886
0.0013412391 0.11590582 0.0067646387 -0.2495454 -0.23408794 -0.12126515 0.01990597 0.04667042
0.18280189 0.124498 0.110882714 -0.06616366 -0.02732624 0.034769736 0.23634446 -0.1012609
0.15542145 -0.07614466 0.22609952 -0.026214307 0.35206464 -0.06625096 -0.037779547 -0.030340578
0.1804227 -0.19578685 0.036402415 -0.057906892 -0.048332077 -0.11899265 -0.19733131 -0.10971002
-0.14803486 -0.14052272 -0.039188087 -0.13603215 0.44436422 0.06691746 -0.27434623 -0.023330396
-0.12810947 0.04691212 -0.094439104 -0.11899645 -0.12327485 0.030504089 -0.04265114 -0.23242266
0.01702467 -0.074120104

binary_classifier.weight f4 [1, 64]
00000000: c761 793c 9d71 9b3c 63e1 8c3b a2c2 cebc
00000010: b069 123a 0c0c 37bd 90bd 9038 f1ba 15bc
00000020: 6a75 c03d 0378 b9bc 2d51 833b 2f65 a5bb
00000030: dd1f 09bd 12f3 643c 3318 7bbd ac27 0dbd
00000040: 7336 2e3b 7e86 903c 5750 833b 4399 5b3b
00000050: 4fc9 5e3c e54b 113c 7843 f43c a900 a33c
00000060: 5297 1b3d 1cca babb c2d3 9e3c 2438 ccbc
00000070: 65aa 293b a62e c23b bbe6 903c e238 0f3c
00000080: 108c 983d 9dd8 0ebb 4fdc e33b 4cf0 ce3c
00000090: 8847 72b8 f68a 65bb c698 e9bc 8b27 3e3b
000000a0: 68a5 02bc 97c5 48bc 1b21 5dbc efda e9bb
000000b0: 1c88 af3b 7029 1e3c a809 1fba edcc 4f3d
000000c0: d0bb 8cba 8310 b03b f7d8 863b b343 c63c
000000d0: f09c cc3b 96eb 423c 1a94 b03b 8422 5c3a
000000e0: 5614 833b 4971 4abb 60bc c2ba 18df 423c
000000f0: fc6b 493b 739f 1d3b 8843 fd3b 1a71 653b
0.015221066 0.018975073 0.004299329 -0.025239293 0.00055852067 -0.044689223 6.901764e-05 -0.009138809
0.09397395 -0.022640234 0.0040074796 -0.0050474624 -0.033477653 0.013973968 -0.061302375 -0.034461662
0.0026582747 0.017642256 0.00400738 0.00335081 0.0135978 0.008868192 0.029817328 0.019897776
0.037986107 -0.005700363 0.019388083 -0.024929114 0.0025888917 0.005925971 0.017688146 0.008741589
0.0744859 -0.0021796592 0.006953753 0.025261067 -5.7763915e-05 -0.0035025454 -0.02851523 0.0029015269
-0.007974006 -0.01225414 -0.0134966625 -0.0071366946 0.0053568017 0.009653434 -0.00060668075 0.05073254
-0.0010737125 0.005373062 0.0041152197 0.024202203 0.0062442943 0.011896988 0.005388749 0.0008397477
0.004000227 -0.0030890277 -0.0014857166 0.01189401 0.003073453 0.0024051338 0.0077289976 0.003501004
