final/best_basket_binary_model.pth (torch, 741613 bytes, 25 tensors)

model.0.weight f4 [512, 9]
0	0x3e9473f5	0.28994718
1	0xbe8d1f1b	-0.27562794
2	0x3e5f6f46	0.21819791
3	0xbef54118	-0.47901225
4	0xbe904b29	-0.28182343
5	0xbe330fb3	-0.17486458
6	0xbe97c88b	-0.2964519
7	0x3e2c0b62	0.16801217
8	0xbd8918bf	-0.06694173
9	0x3e898e48	0.26866364
10	0xbe91f913	-0.2851034
11	0xbbef0b97	-0.007295083
12	0xbee61ff6	-0.4494626
13	0xbd5739b3	-0.05254526
14	0x3e5a286b	0.2130448
15	0x3dd69479	0.10477538
16	0x3e6dc2f0	0.23218894
17	0xbf097e64	-0.5370848
18	0x3a364118	0.0006952449
19	0xbec2ccd2	-0.3804689
20	0xbe088282	-0.13331035
21	0xbeabbef5	-0.33544126
22	0xbe8bce25	-0.27305713
23	0xbd029c09	-0.031887088
24	0x3c9cb78c	0.01913049
25	0xbed6987d	-0.41913214
26	0x3d933c4e	0.071892366
27	0x3e2c1a13	0.16806822
28	0x3e70d5c8	0.23519051
29	0x3eb7438f	0.3579373
30	0x3e051c24	0.12999016
31	0x3dfb5189	0.12271411
32	0x3e461dce	0.19347307
33	0xbd76e533	-0.060277175
34	0x3dfcc1e0	0.12341666
35	0xbe17eba2	-0.1483598
36	0x3e435021	0.19073536
37	0x3e05b58c	0.13057536
38	0x3eab248c	0.3342632
39	0xbe8ab773	-0.27093086
40	0x3e9a1325	0.3009273
41	0x3e00d78b	0.12582223
42	0x3e549601	0.20760347
43	0x3ee97a48	0.45601106
44	0xbdd18bff	-0.1023178
45	0xbdc27e52	-0.0949675
46	0x3e4529d3	0.19254236
47	0xbea2b642	-0.31779677
48	0xbe8a3993	-0.2699705
49	0xbe180924	-0.14847237
50	0x3e174d24	0.1477552
51	0xbe63c2b2	-0.22242239
52	0xbef5824d	-0.47950974
53	0x3f7022f0	0.9380331
54	0x3d64a95e	0.055825584
55	0x3e3839e2	0.1799083
56	0xbebfdb03	-0.3747178
57	0xbe12731d	-0.14301725
58	0x3d9b4f87	0.07583528
59	0xbe457430	-0.19282603
60	0xbde5bcc8	-0.11217648
61	0xbe38a0fd	-0.18030162
62	0xbea38710	-0.31938982
63	0x3db89048	0.090118945
64	0x3d44d210	0.048051894
65	0x3e5e5e5a	0.2171568
66	0x3ccd2302	0.025041107
67	0x3e38411b	0.17993586
68	0x3c74e59b	0.01494732
69	0x3e7ee7d0	0.24893117
70	0x3f073b69	0.5282503
71	0x3ee677eb	0.45013365
72	0x3e6cb107	0.23114406
73	0x3ec617cf	0.3869004
74	0xbdd7307f	-0.10507297
75	0x3ee38227	0.44435236
76	0xbe18fd4d	-0.14940377
77	0xbeb023cd	-0.34402314
78	0x3e846d8a	0.25864822
79	0xbe218ca4	-0.15776306
80	0x3ea3b077	0.3197057
81	0x3cd3dfee	0.025863614
82	0xbf2dfee2	-0.67967045
83	0xbcc4862d	-0.023989761
84	0xbf072ee6	-0.52805936
85	0x3e8402e1	0.25783446
86	0x3c50f990	0.012754813
87	0x3d9c7a45	0.076405086
88	0x3e211885	0.1573201
89	0xbec1cd3b	-0.3785189
90	0x3df1e1fa	0.1181068
91	0xbbb7d5bd	-0.0056101964
92	0x3e16042f	0.14650033
93	0xbe173892	-0.14767674
94	0xbe83c145	-0.2573339
95	0x3e68b1de	0.22724101
96	0xbe163a28	-0.14670622
97	0x3cfab9a8	0.030606106
98	0x3dd09c57	0.101860695
99	0x3e88943f	0.26675603
100	0xbcffa94e	-0.03120866
101	0x3db57ff0	0.08862293
102	0x3e44c708	0.1921655
103	0x3e8f56f9	0.27996042
104	0x3e8ae7cd	0.27129975
105	0xbc99d1b8	-0.01877676
106	0xbe475b5c	-0.19468445
107	0x3e61ca6f	0.22049879
108	0xbe4097a8	-0.18807852
109	0x3ebcb12e	0.36853927
110	0xbf05375c	-0.52037597
111	0xbe9900e4	-0.29883492
112	0x3e17a7b5	0.14810069
113	0x3d70701b	0.058700662
114	0xbe3669b3	-0.17813759
115	0x3e5f4c5d	0.21806474
116	0x3f0d94b5	0.55305034
117	0x3da150b9	0.07876725
118	0x3e30b4f2	0.17256525
119	0x3e9166c8	0.28398728
120	0xbe5ed32a	-0.2176024
121	0x3dca2c80	0.09871769
122	0xbe550b35	-0.20805056
123	0x3eb0b823	0.34515485
124	0xbe96b6a9	-0.29436234
125	0x3eb61c24	0.35568345
126	0x3e302e2c	0.17205113
127	0xbd8d799b	-0.0690796
128	0xbe10d7a8	-0.14144766
129	0xbe25871b	-0.1616482
130	0xbd22c625	-0.039739747
131	0x3ea0e915	0.31427827
132	0xbdff4df6	-0.12466042
133	0xbe54cb9f	-0.207808
134	0xbe76cc40	-0.24101353
135	0xbd04cdbf	-0.032422777
136	0xbdc603e1	-0.096687086
137	0xbcd17b00	-0.025571346
138	0x3e43f5fe	0.19136807
139	0xbea31afd	-0.31856528
140	0x3e90f38c	0.28310812
141	0xbe1f38d7	-0.15549026
142	0xbe8b22f3	-0.27175102
143	0x3eadd2aa	0.33949786
144	0xbde3abf8	-0.11116785
145	0xbef95fe8	-0.48705983
146	0xbd8003e7	-0.06250744
147	0xbdb66cae	-0.08907448
148	0x3dc39b98	0.095511615
149	0xbd412895	-0.047157843
150	0x3d33b6c8	0.043875486
151	0x3f02f254	0.51151013
152	0x3e2a7af3	0.16648464
153	0xbd6bb135	-0.057542045
154	0xbdf50f02	-0.11965753
155	0xbda9087a	-0.0825357
156	0xbe8b68fc	-0.27228534
157	0x3e2ee8ae	0.17080948
158	0xbe7f7b7a	-0.24949446
159	0xbe31cd85	-0.17363556
160	0x3dba8f57	0.09109371
161	0x3dc99c8f	0.09844314
162	0x3e934e93	0.28770885
163	0xbb9b81cb	-0.004745697
164	0x3e8f4f7e	0.27990335
165	0xbea57b4a	-0.32320625
166	0x3e08d193	0.13361196
167	0x3e5d555e	0.21614596
168	0x3e5dec98	0.21672285
169	0xbc4bc315	-0.012436648
170	0xbf094577	-0.5362162
171	0xbe9eab2c	-0.3098997
172	0xbee9fd85	-0.45701233
173	0xbe632795	-0.22183068
174	0xbe89b645	-0.26896873
175	0x3ea6e71d	0.325982
176	0x3d63c0f4	0.055603936
177	0xbbef36c1	-0.0073002283
178	0x3e0f4d8a	0.13994423
179	0xbed7a1ed	-0.42115727
180	0x3e7d02cd	0.247081
181	0x3ea06703	0.31328592
182	0xbd63d58a	-0.05562357
183	0xbe2f4db8	-0.17119491
184	0x3e9853e7	0.29751512
185	0x3e68de49	0.22741045
186	0xbdbeafbc	-0.093108624
187	0xbe82485c	-0.2544583
188	0x3c7ec6a8	0.015550293
189	0xbeb814cb	-0.35953364
190	0x3e9396af	0.288259
191	0x3dfdb084	0.12387183
192	0x3e89cb8c	0.26913106
193	0xbe988280	-0.29787064
194	0xbe2383cf	-0.1596825
195	0x3df25783	0.11833098
196	0x3e642800	0.22280884
197	0xbe491783	-0.19637875
198	0xbd769956	-0.060204826
199	0xbbf40156	-0.0074464483
200	0xbe686c00	-0.22697449
201	0x3e4647ee	0.19363376
202	0x3d7beb20	0.06150353
203	0xbe2beee6	-0.16790351
204	0xbdd52fe0	-0.10409522
205	0x3da6fc60	0.081536055
206	0x3aa8c400	0.0012875795
207	0x3de81291	0.11331666
208	0xbf2991a9	-0.66237885
209	0x3e8f8111	0.28028157
210	0xbe67969a	-0.22616044
211	0x3d9130e5	0.07089404
212	0x3e25cb70	0.16190886
213	0xbe53201d	-0.20617719
214	0x3e05611d	0.13025327
215	0x3f18b42f	0.5964994
216	0x3c06cf8c	0.008228194
217	0xbf44782e	-0.7674588
218	0xbcbbb7fd	-0.02291488
219	0xbf26bcf0	-0.65132046
220	0x3ed9c349	0.42531803
221	0x3d99a600	0.07502365
222	0xbe18c04e	-0.14917108
223	0xbe6e217e	-0.23254964
224	0xbe3e0d10	-0.1855967
225	0x3e797424	0.2436071
226	0xbe364bcb	-0.1780235
227	0xbc541107	-0.012943513
228	0x3d5ee45e	0.054417007
229	0x3cd9dd4e	0.026594784
230	0xbe41a54e	-0.18910715
231	0x3e1610bd	0.14654823
232	0x3e8ecae3	0.27889165
233	0xbe89e206	-0.26930255
234	0xbe948593	-0.2900816
235	0xbd1afed1	-0.037840668
236	0xbe2aece4	-0.16691929
237	0x3e706745	0.23476894
238	0xbcea288e	-0.028583791
239	0xbe136b45	-0.14396389
240	0x3be430a4	0.006963806
241	0xbd08fad4	-0.033442333
242	0x3c2dc32b	0.010605614
243	0xbda1f750	-0.07908499
244	0xbeaec197	-0.34132072
245	0x3e88daf8	0.2672956
246	0xbe16782c	-0.1469428
247	0x3ecb9eb6	0.39769524
248	0x3e3b4747	0.18288909
249	0x3e4ac143	0.19800286
250	0xbee9641f	-0.455842
251	0x3f2b15ab	0.6682994
252	0xbe2a19b7	-0.16611372
253	0xbe0874ab	-0.13325755
254	0x3b76add6	0.0037640235
255	0xbeb75a81	-0.35811237

model.0.bias f4 [512]
0	0x3dff2613	0.12458434
1	0x3e9cbe65	0.3061401
2	0x3e11c85b	0.14236586
3	0x3dafed62	0.08590199
4	0xbe80a70a	-0.2512744
5	0xbe94f0db	-0.29090008
6	0xbea3efbe	-0.32018846
7	0x3e9bd273	0.30433998
8	0xbeac191f	-0.33612916
9	0xbd00450f	-0.03131586
10	0x3db7ff33	0.08984222
11	0xbe7f8ebd	-0.24956794
12	0xbe6f4679	-0.23366727
13	0x3da1b76e	0.078963146
14	0x3e51592f	0.20444177
15	0x3debe43d	0.11518142
16	0xbec672db	-0.38759503
17	0x3d182d5c	0.037152633
18	0x3e0a9959	0.1353506
19	0xbe1320d1	-0.14367987
20	0x3e87685a	0.264468
21	0xbe3bd95c	-0.18344635
22	0xbe30aef6	-0.17254242
23	0x3da0a44e	0.07843839
24	0xbe5f4913	-0.2180522
25	0x3e7b7747	0.2455722
26	0x3e916827	0.28399774
27	0x3d9feb6d	0.07808576
28	0xbec4592f	-0.38349292
29	0xbe8c846c	-0.2744478
30	0x3d43d093	0.047806334
31	0x3d56d82b	0.052452248
32	0x3dcaabd8	0.09896058
33	0xbe758012	-0.23974636
34	0x3ed2ff83	0.41210565
35	0xbde7a95b	-0.11311599
36	0x3e01383d	0.1261911
37	0x3d9044d8	0.07044381
38	0x3dd2a3c6	0.102851436
39	0x3deb31ee	0.11484133
40	0xbe578eb1	-0.21050526
41	0xbedc4002	-0.43017584
42	0xbd0417f9	-0.032249425
43	0x3e200fb1	0.15630986
44	0xbe991816	-0.2990119
45	0x3e4734ec	0.19453782
46	0x3e124039	0.14282311
47	0xbe053b95	-0.1301101
48	0xbec77de6	-0.3896324
49	0x3e6120f6	0.2198523
50	0xbd703431	-0.058643524
51	0xbe25680a	-0.16152969
52	0x3ea3c7c4	0.31988347
53	0x3e812b48	0.25228333
54	0x3eb2ed6b	0.3494676
55	0x3e03d87e	0.12875554
56	0xbd854d32	-0.065088645
57	0x3e05a36e	0.13050625
58	0x3ea66111	0.3249593
59	0xbe4c5fb6	-0.19958386
60	0x3e21f77c	0.15817064
61	0x3e10e85c	0.14151138
62	0x3cb83cab	0.022489866
63	0xbb2004dd	-0.0024416961
64	0x3dd517ca	0.10404928
65	0xbc92251e	-0.017839964
66	0x3def32cc	0.116796106
67	0x3da9e688	0.082959235
68	0x3e4a65fb	0.19765465
69	0xbe20ac35	-0.15690692
70	0x3cdee7d8	0.027210161
71	0x3e2d6ce8	0.16936076
72	0x3bb47370	0.0055069253
73	0x3eb61bd4	0.35568106
74	0xbe155726	-0.14584026
75	0xbe9b41aa	-0.30323535
76	0x3e6a8f98	0.22906339
77	0x3e5da2a4	0.21644074
78	0xbdd62a8e	-0.104573354
79	0x3e913faf	0.283689
80	0xbcaf3145	-0.021385798
81	0xbe82d4c7	-0.2555296
82	0xbe3f38bb	-0.18673985
83	0x3e9c3443	0.30508623
84	0x3d9a8815	0.07545487
85	0x3e29772d	0.16549368
86	0x3cd55cc7	0.026045216
87	0xbdd0be1e	-0.10192512
88	0xbece913a	-0.40345174
89	0x3e073699	0.13204421
90	0xbeb10366	-0.34572905
91	0x3e0712a6	0.13190708
92	0xbd4f628b	-0.050631087
93	0x3e3f41ad	0.18677397
94	0x3b51ac12	0.003199343
95	0xbdf90884	-0.12159827
96	0x3e514c60	0.20439291
97	0x3d71e802	0.05905915
98	0xbc22717c	-0.009914752
99	0x3e2f6a78	0.17130458
100	0x3d9ea56f	0.07746398
101	0xbeb40a2a	-0.35164005
102	0x3bf8f730	0.0075978264
103	0xbe56fdad	-0.20995207
104	0xbe806e14	-0.25083983
105	0x3e10e927	0.1415144
106	0x3ded3edc	0.11584255
107	0x3eb1ff70	0.34765196
108	0x3e89abea	0.26888973
109	0x3dabcf40	0.08389139
110	0x3e8120d4	0.25220358
111	0xbea14f9f	-0.3150606
112	0xbad46a5b	-0.0016206013
113	0xbe92bcf5	-0.28659788
114	0x3e0688e4	0.13138157
115	0x3e1282eb	0.14307754
116	0xbe6e815c	-0.23291534
117	0xbe8921af	-0.2678351
118	0x3b761756	0.003755053
119	0x3e9da9cd	0.3079361
120	0x3e1baf5c	0.15203613
121	0xbd0423eb	-0.032260817
122	0x3e036951	0.12833144
123	0x3dcff296	0.101536915
124	0x3e0d466c	0.13796395
125	0xbec925f5	-0.3928677
126	0xbd36a536	-0.04459115
127	0xbd9ba8c9	-0.076005526
128	0x3d529326	0.051409863
129	0x3e289984	0.16464812
130	0x3e7145e9	0.23561825
131	0x3b8c4956	0.0042812033
132	0xbe53715a	-0.20648709
133	0x3e107c70	0.14109969
134	0x3e5d1686	0.21590623
135	0xbe944b2e	-0.28963608
136	0xbd605b56	-0.054774605
137	0xbd5a5c29	-0.053310547
138	0xbe835c6f	-0.2565646
139	0x3e837993	0.2567869
140	0xbd7a57ff	-0.061119076
141	0xbee2e4ec	-0.4431528
142	0xbdb68cc8	-0.08913571
143	0xbda868bc	-0.082231015
144	0xbccc3df1	-0.02493188
145	0x3d942d42	0.07235195
146	0xbd2c32a8	-0.042040497
147	0xbe0ae11f	-0.1356244
148	0x3ea9f223	0.33192548
149	0xbc6cc551	-0.014451341
150	0xbe91c9cb	-0.28474268
151	0x3e208ef0	0.15679526
152	0xbe0ed423	-0.13948111
153	0xbe897c39	-0.26852587
154	0xbdea78ec	-0.11448845
155	0xbd8f24bd	-0.06989429
156	0xbe9613bc	-0.2931193
157	0x3e8c0075	0.273441
158	0x3e1b5d1c	0.15172237
159	0x3eba6fe5	0.36413494
160	0xbe5dab40	-0.21647358
161	0xbdcbea74	-0.09956828
162	0x3d7a8a2e	0.061166935
163	0xbcb0de74	-0.021590449
164	0x3e3429c2	0.17594054
165	0x3e5c045e	0.21486041
166	0x3e9f979c	0.31170356
167	0x3e6bb85d	0.23019548
168	0x3dcfb224	0.101413995
169	0x3e56dcfe	0.2098274
170	0xbc90866f	-0.017642228
171	0xbcaaa23a	-0.020829309
172	0x3e6cf2e1	0.23139526
173	0xbde8f51f	-0.11374878
174	0xbe5724ac	-0.21010083
175	0x3e4d5b76	0.20054421
176	0xbe2697b4	-0.16268808
177	0xbe088b51	-0.13334395
178	0x3ea9378c	0.3305019
179	0xbe57b395	-0.21064599
180	0xbd828e94	-0.06374851
181	0xbd8cfdac	-0.068843216
182	0x3e2fc839	0.17166223
183	0x3dc65dbc	0.09685847
184	0xbe837564	-0.256755
185	0xbe24cc10	-0.16093469
186	0x3d374494	0.044743136
187	0xbe3ff930	-0.18747401
188	0xbe5307f8	-0.20608509
189	0xbc8b4cfd	-0.017004484
190	0x3dd979ce	0.106189355
191	0xbeb0d48d	-0.34537163
192	0x3df1b278	0.11801618
193	0xbe4d09e2	-0.20023301
194	0x3e4333cc	0.19062728
195	0x3e25b988	0.16184056
196	0xbe98c04f	-0.2983422
197	0xbdcd444e	-0.10022794
198	0xbe226089	-0.15857138
199	0x3c971471	0.018442364
200	0xbc318d8f	-0.010836973
201	0xbe2dbe38	-0.16967094
202	0x3e1b4561	0.15163185
203	0xbd0f635e	-0.035006873
204	0x3e9c9424	0.30581772
205	0xbd7606f3	-0.06006522
206	0xbda93038	-0.0826115
207	0xbe305ca1	-0.17222835
208	0xbe878d3d	-0.26474944
209	0xbdf5e870	-0.120072246
210	0x3e18855a	0.1489462
211	0xbecf5c77	-0.40500233
212	0x3dbb4db2	0.091456786
213	0xbd4a1d6f	-0.049344476
214	0x3cd7d31c	0.026345782
215	0x3e4b7341	0.19868185
216	0x3ea01730	0.3126769
217	0xbcb8e25c	-0.022568874
218	0xbe6fc683	-0.2341557
219	0x3ef0dad1	0.47041944
220	0xbd113fc8	-0.035461217
221	0x3d904842	0.07045032
222	0x3e911213	0.28334102
223	0xbe647f47	-0.22314177
224	0x3e3fd090	0.18731904
225	0x3d98c09e	0.07458614
226	0xbea485fa	-0.32133466
227	0xbddfb7dc	-0.1092374
228	0x3e90ca72	0.28279454
229	0x3d63d343	0.055621397
230	0x3e3716e6	0.17879829
231	0xbe9b23fd	-0.30300894
232	0xbe473d73	-0.19457035
233	0x3c9df140	0.019280076
234	0xbd62ab3f	-0.055339094
235	0xbea9ed7f	-0.33189008
236	0x3b8f2ac6	0.0043691127
237	0x3e001cfb	0.12511055
238	0x3e1e555a	0.15462247
239	0xbd1ecd85	-0.038770217
240	0xbe8c8d6b	-0.27451643
241	0xbcc7d6c9	-0.02439441
242	0xbebb7865	-0.3661529
243	0xbe70e2d6	-0.23524031
244	0xbe8d8537	-0.27640697
245	0xbed62d8b	-0.41831622
246	0xbeb94862	-0.36188036
247	0x3d2a2b76	0.041545354
248	0xbda67710	-0.08128178
249	0x3e69ac32	0.22819594
250	0xbe57551c	-0.2102856
251	0x3ca712d6	0.020394724
252	0x3ed78425	0.42093006
253	0xbe50e9c0	-0.20401669
254	0x3d55c18a	0.052186526
255	0xbe519f4c	-0.20470923

model.2.weight f4 [512]
0	0x3f7b602e	0.98193634
1	0x3f45c087	0.772469
2	0x3f7e1ea1	0.99265486
3	0x3f2f3881	0.68445593
4	0x3f4daa18	0.8033767
5	0x3f66e003	0.90185565
6	0x3f8a547b	1.0807031
7	0x3f7eafe8	0.9948716
8	0x3f68b950	0.90907764
9	0x3f95be48	1.1698694
10	0x3f3fbb15	0.7489484
11	0x3f3323ac	0.69976306
12	0x3f920e86	1.1410682
13	0x3f6815c5	0.9065822
14	0x3f4b87aa	0.7950388
15	0x3f4595d3	0.7718174
16	0x3f8067a8	1.0031633
17	0x3f94293f	1.1575087
18	0x3f55b1d8	0.83474493
19	0x3f606147	0.87648433
20	0x3f394da0	0.7238407
21	0x3f945277	1.1587666
22	0x3f800000	1.0
23	0x3f5ae8fe	0.8551177
24	0x3f71a210	0.9438791
25	0x3f4469e6	0.7672409
26	0x3f8c0871	1.0940076
27	0x3f579b38	0.8422122
28	0x3f7d217c	0.9887922
29	0x3f800000	1.0
30	0x3f88208c	1.0634933
31	0x3f800000	1.0
32	0x3f92f6ad	1.148153
33	0x3f8a8155	1.0820719
34	0x3f98b8a8	1.1931353
35	0x3f5c2cbd	0.86005765
36	0x3f728d1b	0.9474656
37	0x3f85f238	1.0464544
38	0x3f50c19a	0.8154541
39	0x3f39b283	0.7253801
40	0x3f88946e	1.0670297
41	0x3f380d5d	0.7189539
42	0x3f3a84ff	0.72859186
43	0x3f3aefdb	0.7302224
44	0x3f861e4f	1.0478
45	0x3fa5a313	1.2940391
46	0x3f8a7c32	1.0819151
47	0x3f542592	0.8286983
48	0x3f947703	1.159882
49	0x3f3eb14e	0.74489295
50	0x3f80de53	1.0067848
51	0x3f422276	0.75833833
52	0x3f4aefae	0.7927197
53	0x3f216f25	0.6306022
54	0x3f33e5e0	0.70272636
55	0x3f94c7ab	1.1623434
56	0x3f906c6d	1.1283089
57	0x3f8ce83b	1.1008371
58	0x3f90abcf	1.1302432
59	0x3f80a736	1.0051029
60	0x3f8dd019	1.1079131
61	0x3f82cc6b	1.0218633
62	0x3f353450	0.7078295
63	0x3f8158cd	1.0105225
64	0x3f3a3d2c	0.7274959
65	0x3f897d78	1.0741415
66	0x3f499b2b	0.7875239
67	0x3f3885f9	0.72079426
68	0x3f3a13d4	0.72686505
69	0x3f54afec	0.83080935
70	0x3f59ce02	0.8507997
71	0x3f828b3e	1.0198743
72	0x3f1bb069	0.60816056
73	0x3f79035a	0.9727074
74	0x3f800000	1.0
75	0x3f9af1b8	1.2105017
76	0x3f78c6eb	0.97178525
77	0x3f62335e	0.8835963
78	0x3f3347c7	0.700314
79	0x3f6c3b15	0.9227765
80	0x3f7061b5	0.9389909
81	0x3f7566ee	0.95860183
82	0x3f4493d4	0.7678807
83	0x3f20a0ad	0.6274517
84	0x3f83e8a5	1.0305372
85	0x3f7a9fc0	0.9790001
86	0x3f6b3632	0.9187957
87	0x3f94cb3a	1.162452
88	0x3f8370be	1.0268781
89	0x3f873cb5	1.0565401
90	0x3f898bbd	1.074577
91	0x3f82f8a8	1.0232134
92	0x3f800000	1.0
93	0x3f49f11a	0.78883517
94	0x3f4291da	0.760038
95	0x3f7bc110	0.98341465
96	0x3f3405c6	0.7032131
97	0x3f88d320	1.068943
98	0x3f8a715a	1.0815842
99	0x3f8cd33b	1.1001962
100	0x3f6a87b9	0.91613346
101	0x3f7acdf1	0.9797049
102	0x3fa24a20	1.2678871
103	0x3f8b82a8	1.0899248
104	0x3fa55408	1.2916269
105	0x3f893287	1.0718545
106	0x3f6666ed	0.900008
107	0x3fac5101	1.346222
108	0x3f65b9f9	0.89736897
109	0x3f8ff758	1.1247358
110	0x3f7c8bcc	0.98650813
111	0x3f882d0c	1.0638747
112	0x3f7d03a6	0.9883369
113	0x3f680f71	0.9064856
114	0x3f8064bc	1.0030742
115	0x3f31400e	0.69238365
116	0x3f96d7c4	1.1784596
117	0x3f892d84	1.0717015
118	0x3f800000	1.0
119	0x3f4e49cb	0.8058135
120	0x3f5f558d	0.87239915
121	0x3f800000	1.0
122	0x3f3299f7	0.6976618
123	0x3f836626	1.0265548
124	0x3f7c9907	0.98671
125	0x3f81c939	1.0139533
126	0x3f58cb31	0.84685045
127	0x3f96a694	1.1769586
128	0x3f808e26	1.004338
129	0x3f81d5fc	1.0143428
130	0x3f8e94d8	1.1139174
131	0x3f800000	1.0
132	0x3f97121d	1.1802403
133	0x3f89d3ca	1.0767758
134	0x3f800000	1.0
135	0x3f8c45c4	1.0958791
136	0x3f800000	1.0
137	0x3f8be947	1.0930566
138	0x3f6353bd	0.8879965
139	0x3f800000	1.0
140	0x3f3c1bc0	0.73479843
141	0x3f5c50a0	0.86060524
142	0x3f68c856	0.9093069
143	0x3f4e25b5	0.80526286
144	0x3f988f91	1.1918813
145	0x3f857906	1.0427558
146	0x3f4cd35b	0.8001
147	0x3f9889b5	1.1917025
148	0x3f8e529a	1.1118958
149	0x3f87b921	1.0603372
150	0x3f692a0f	0.910798
151	0x3f60f7d6	0.8787817
152	0x3f800000	1.0
153	0x3f7f181a	0.9964615
154	0x3f80170d	1.0007035
155	0x3f8b0840	1.0861893
156	0x3f8e1176	1.1099079
157	0x3f56d82a	0.8392359
158	0x3f786969	0.97035843
159	0x3f86ccbe	1.0531232
160	0x3f9701f2	1.1797469
161	0x3f83770a	1.0270703
162	0x3f9b6faf	1.2143458
163	0x3f685db3	0.90767974
164	0x3f664d02	0.89961255
165	0x3f800000	1.0
166	0x3f734320	0.950243
167	0x3f1ebd73	0.62007827
168	0x3f6a9c81	0.91645056
169	0x3f800000	1.0
170	0x3f44fa5a	0.76944506
171	0x3f846fc1	1.0346605
172	0x3f66ab2d	0.90104944
173	0x3f7be96f	0.98403066
174	0x3f807c5a	1.0037949
175	0x3f7bfd1f	0.9843311
176	0x3f820f25	1.0160872
177	0x3f92f66e	1.1481454
178	0x3f8199be	1.0125043
179	0x3f71739f	0.9431705
180	0x3f8ba0aa	1.0908406
181	0x3f4d34d4	0.80158734
182	0x3f6e1787	0.9300465
183	0x3f4522c0	0.7700615
184	0x3f4e38e1	0.8055554
185	0x3f2a5f7a	0.66551936
186	0x3f33c789	0.7022634
187	0x3f8c8256	1.0977275
188	0x3f6883b5	0.9082597
189	0x3f863cff	1.0487365
190	0x3f30e429	0.69098145
191	0x3f879005	1.0590826
192	0x3f8cdf34	1.1005616
193	0x3f48d297	0.78446335
194	0x3f39e0a9	0.7260843
195	0x3f9a5c0b	1.2059339
196	0x3f4485f5	0.767669
197	0x3f75f160	0.96071434
198	0x3f72a33d	0.9478033
199	0x3f6d92af	0.92801946
200	0x3f5342cc	0.825238
201	0x3f2ebce9	0.68257004
202	0x3f88e411	1.06946
203	0x3f97becf	1.1855105
204	0x3f8056bf	1.0026473
205	0x3f2576ca	0.6463438
206	0x3f8d992b	1.1062368
207	0x3f72c146	0.9482616
208	0x3fa13c1e	1.2596471
209	0x3f8744da	1.0567887
210	0x3f614bb4	0.8800614
211	0x3f5db628	0.86606073
212	0x3f86354a	1.0485013
213	0x3f35a681	0.7095719
214	0x3f8902c3	1.0703968
215	0x3f31500c	0.69262767
216	0x3f800000	1.0
217	0x3f69b7dd	0.9129618
218	0x3f800000	1.0
219	0x3f9f425c	1.2442126
220	0x3f828bcc	1.0198913
221	0x3f4a03ea	0.7891222
222	0x3f3068d0	0.6890993
223	0x3f859c32	1.0438292
224	0x3f559ac8	0.834393
225	0x3f81d479	1.0142967
226	0x3f882b25	1.0638167
227	0x3f59a68f	0.85019773
228	0x3f3eef56	0.7458395
229	0x3f99a05c	1.2002063
230	0x3f800000	1.0
231	0x3f45e65f	0.77304643
232	0x3f5ad9a9	0.85488373
233	0x3f800000	1.0
234	0x3f7d9aa3	0.9906408
235	0x3f892eb0	1.0717373
236	0x3f780909	0.96888787
237	0x3f455faa	0.77099097
238	0x3f99a93c	1.2004771
239	0x3f789f9d	0.9711855
240	0x3f594ad5	0.8487981
241	0x3f822798	1.0168333
242	0x3f8f8ad8	1.1214247
243	0x3f35e9e5	0.7106002
244	0x3f75a01e	0.95947444
245	0x3f9753f2	1.1822493
246	0x3f36e1ed	0.71438485
247	0x3f4b0817	0.7930922
248	0x3f800000	1.0
249	0x3f477c38	0.7792392
250	0x3f77da1b	0.9681718
251	0x3f800000	1.0
252	0x3f5ad160	0.8547573
253	0x3f6e9803	0.932007
254	0x3f8a1b08	1.0789499
255	0x3f72eb1b	0.9488999

model.2.bias f4 [512]
0	0x3e0eabcc	0.13932723
1	0x3d5cef5b	0.053939205
2	0xbe3b2e37	-0.18279348
3	0xbe06621b	-0.13123362
4	0xbd048522	-0.032353528
5	0xbe3fc964	-0.18729168
6	0xbcf051ec	-0.029335938
7	0xbd925923	-0.07145908
8	0x3dee9629	0.116497345
9	0x3e02a0dd	0.12756677
10	0xbe1d167a	-0.15340605
11	0xbe08badc	-0.13352531
12	0x3e4e36c2	0.20138076
13	0x3d6db981	0.05803824
14	0xbe792e05	-0.24333961
15	0xbe5d06bd	-0.21584602
16	0xbd06d44a	-0.0329173
17	0x3c3f23bb	0.011666234
18	0xbe5b9343	-0.21442895
19	0x3e41ac80	0.1891346
20	0xbda2db99	-0.07952041
21	0xbdee9b44	-0.11650708
22	0xbe871043	-0.26379594
23	0xbe021af9	-0.12705602
24	0x3c148ab3	0.009066272
25	0x3d3696ad	0.04457729
26	0xbe5a0842	-0.21292213
27	0xbe0cdd5b	-0.13756315
28	0xbe036551	-0.12831618
29	0xbe9c30e5	-0.30506054
30	0x3be24199	0.0069047925
31	0xbe844821	-0.2583628
32	0xbe0ca758	-0.13735712
33	0xbbefe2eb	-0.007320752
34	0x3dc2eea2	0.09518172
35	0xbbffbc91	-0.0078044613
36	0x3dcc0972	0.09962739
37	0x3dcc8cf4	0.09987822
38	0xbe0a35a0	-0.13497019
39	0xbe65274f	-0.22378276
40	0xbd4c465f	-0.0498718
41	0xbdec7683	-0.11546042
42	0xbd9de2e8	-0.077092946
43	0xbc1b3660	-0.009473413
44	0x3db59b0c	0.088674635
45	0x3e27d49c	0.16389698
46	0x3dd0485f	0.10170054
47	0xbe1ff812	-0.15621975
48	0xbd8a8b34	-0.06764832
49	0xbe857afa	-0.26070386
50	0xbdc953f4	-0.09830466
51	0xbe57c1e9	-0.21070065
52	0xbdf46872	-0.11933984
53	0xbe11ab7f	-0.14225577
54	0x3d06662c	0.032812282
55	0x3e443ad1	0.19163062
56	0x3d720f94	0.059096888
57	0x3ce1326b	0.027489861
58	0x3d4c8632	0.049932666
59	0x3e00b64a	0.12569538
60	0x3e20b48b	0.15693872
61	0x3d969475	0.07352535
62	0xbe6ac97c	-0.22928423
63	0x3e5ea8e2	0.21744111
64	0xbd89fba3	-0.06737449
65	0x3da30b51	0.07961143
66	0xbe57c945	-0.21072872
67	0xbc90e3b4	-0.017686702
68	0xbcd4671f	-0.025928078
69	0xbc2d5a3f	-0.010580598
70	0xbdd8a142	-0.105776325
71	0xbda3d805	-0.08000187
72	0xbdcc554c	-0.099772066
73	0x3dd7dcaf	0.10540139
74	0xbe826636	-0.25468606
75	0x3e37f86c	0.17965859
76	0x3dd7b238	0.105320394
77	0x3e17e778	0.14834392
78	0xbe6a3c8a	-0.22874656
79	0x3d9ef8a1	0.07762266
80	0xbdae95f2	-0.085246935
81	0x3dac70bc	0.0841994
82	0x3dcf8388	0.101325095
83	0xbd1fb61a	-0.038992025
84	0x3e86c970	0.2632556
85	0xbe15c4dc	-0.14625877
86	0xbe3884fe	-0.18019482
87	0x3e126be0	0.14298964
88	0x3dd73087	0.10507303
89	0x3db3b13f	0.087740414
90	0x3d5c726a	0.05382005
91	0x3ddbfa1d	0.10741065
92	0xbe13e01e	-0.14440963
93	0xbdc5f335	-0.09665529
94	0x3dddf956	0.10838573
95	0x3c2edeaf	0.010673209
96	0xbe2aec1c	-0.16691631
97	0x3c18ac9a	0.009318495
98	0xbc2b8a52	-0.01046999
99	0x3d048902	0.032357223
100	0xbdcea5a5	-0.10090188
101	0x3c935446	0.01798452
102	0xbc34e044	-0.011039797
103	0xbd36757b	-0.04454563
104	0xbd2c1b91	-0.042018477
105	0x3e5f0141	0.21777822
106	0xbda4e9ac	-0.08052382
107	0x3e17a26c	0.14808053
108	0x3e64f481	0.22358896
109	0x3de36dc4	0.111049205
110	0xbe9a748b	-0.3016704
111	0x3deb9d2c	0.115045875
112	0x3d99b1d1	0.07504619
113	0xbdbc5e76	-0.091977045
114	0x3d78b86a	0.060722746
115	0xbcab392c	-0.020901285
116	0xbc8c2543	-0.017107612
117	0xbde8f703	-0.11375239
118	0x3e8a8696	0.27055806
119	0xbe88b43b	-0.26700005
120	0xbe665016	-0.22491488
121	0xbe4486a6	-0.1919199
122	0x3d51e4e3	0.051243674
123	0xbe33b613	-0.17549925
124	0x3e0f69fc	0.14005274
125	0xbd8af07e	-0.067841515
126	0x3b02f284	0.0019980976
127	0x3e087c12	0.13328579
128	0xbd9859f5	-0.07439033
129	0x3d413278	0.04716727
130	0x3d37cef4	0.0448751
131	0x3e8f847d	0.28030768
132	0x3c5ba111	0.0134051
133	0x3e7668da	0.24063435
134	0x3e8f2971	0.27961305
135	0x3d0cedee	0.034406595
136	0x3e7b7ce1	0.24559356
137	0x3dcb2748	0.09919602
138	0xbe318c81	-0.17338754
139	0xbe739932	-0.23788908
140	0xbdba4446	-0.090950534
141	0xbc7a57b7	-0.015279702
142	0xbd86495a	-0.065569595
143	0xbdab4223	-0.08362224
144	0x3d3658eb	0.044518393
145	0xbcc24422	-0.023714129
146	0x3cf6bb38	0.03011857
147	0xbd21868e	-0.039434962
148	0x3e2ac6f5	0.16677459
149	0xbdfb7648	-0.1227842
150	0x3bec9d71	0.007220917
151	0xbae24626	-0.0017263338
152	0x3e7f4e0a	0.24932113
153	0x3cb887f2	0.022525761
154	0xbd72aa5e	-0.059244506
155	0x3bd2d226	0.006433743
156	0xbd0e0b94	-0.03467901
157	0xbd7669f0	-0.060159624
158	0x3ea860a5	0.32886234
159	0x3deb87b8	0.11500496
160	0x3d6bf3de	0.057605617
161	0x3dfa8a0a	0.1223336
162	0x3da6285b	0.08113166
163	0x3c92c338	0.017915353
164	0x3c00e0d2	0.007866101
165	0x3e613110	0.21991372
166	0x3de846d6	0.11341636
167	0xbdcace33	-0.09902611
168	0xbd5931a5	-0.05302586
169	0x3e69ae5b	0.22820418
170	0xbd88c40e	-0.066780195
171	0xbe3ca09d	-0.18420644
172	0xbdec0a99	-0.11525459
173	0xbb221f8a	-0.0024738037
174	0x3e31eabf	0.17374705
175	0x3d1d8f0d	0.038466502
176	0xbe270488	-0.16310322
177	0x3e4bedf2	0.19914988
178	0x3d8eb475	0.06968013
179	0x3e483c4e	0.19554254
180	0x3d45e4ac	0.04831378
181	0xbd705c56	-0.05868181
182	0x3da9459b	0.08265229
183	0xbe646406	-0.22303781
184	0xbddc6fdd	-0.10763524
185	0xbe5a14ff	-0.21297072
186	0xbd5ffdb0	-0.054685295
187	0x3d4f8510	0.050664008
188	0xbe39fbbb	-0.18162434
189	0x3c792dbd	0.015208659
190	0xbe282009	-0.1641847
191	0xbb3ea09e	-0.0029087435
192	0x3db1d253	0.08682694
193	0xbe028551	-0.12746169
194	0xbc0edabb	-0.008719142
195	0x3dfb086b	0.12257465
196	0x3b191a06	0.0023361458
197	0x3e1c98ec	0.1529271
198	0xbd59c359	-0.053164814
199	0xbdf46088	-0.119324744
200	0xbd7e8124	-0.062134877
201	0xbeadd3c0	-0.33950615
202	0x3d79941f	0.060932275
203	0x3dcb7adb	0.09935542
204	0x3e563dd5	0.20922025
205	0xbdf26b1e	-0.11836837
206	0x3da3fc73	0.08007135
207	0x3d842af6	0.06453507
208	0xbda3c164	-0.07995871
209	0x3e1da66f	0.1539552
210	0xbdedaa6a	-0.116047695
211	0xbd67333e	-0.056445353
212	0x3d42d366	0.047564887
213	0xbe0addfe	-0.13561246
214	0x3e3e71e8	0.1859814
215	0xbe4df702	-0.20113757
216	0xbe5fc1b9	-0.21851243
217	0xbe0d6c7c	-0.13810915
218	0x3e6eba83	0.23313336
219	0x3e17183a	0.14755335
220	0x3e3eb66b	0.18624274
221	0xbdf2c900	-0.11854744
222	0x3caf6002	0.021408085
223	0xbd275bed	-0.04085915
224	0xbcd5b5df	-0.0260877
225	0xbc3e2fd9	-0.011608087
226	0xbdc25c24	-0.09490231
227	0x3d91514a	0.07095583
228	0xbe95a431	-0.2922683
229	0x3d9716ae	0.07377373
230	0xbe88d752	-0.26726776
231	0xbdede5b9	-0.11616082
232	0xbd084cc2	-0.033276327
233	0xbe927a7b	-0.2860907
234	0xbdb728f0	-0.08943355
235	0x3d923098	0.07138175
236	0x3d4b75e5	0.04967298
237	0x3cb68552	0.022280369
238	0x3d0cabf4	0.034343675
239	0x3da22a3f	0.07918214
240	0x3e7e98fc	0.24863046
241	0x3d254af6	0.04035469
242	0x3c7a0762	0.015260549
243	0xbdc508fc	-0.09620854
244	0xbd00bad8	-0.031428188
245	0x3cfeaca1	0.031088175
246	0xbd26a790	-0.040687144
247	0xbc2718b2	-0.010198759
248	0x3e8254f7	0.25455448
249	0xbe48a67e	-0.19594762
250	0xbe259bb2	-0.16172674
251	0x3e3e409f	0.18579338
252	0x3dcef0b7	0.101045065
253	0x3e37b8a6	0.17941532
254	0x3c08ade4	0.00834224
255	0xbe1b0fe5	-0.15142782

model.2.running_mean f4 [512]
0	0x3e80b3ff	0.25137326
1	0x413e7779	11.904168
2	0x395f9c4e	0.00021325165
3	0x412757c4	10.458927
4	0x41202b62	10.0105915
5	0x4000a9c5	2.010362
6	0x377ae9cb	1.4955595e-05
7	0x40abc1b9	5.367398
8	0x3e80638a	0.25075942
9	0x3f88c963	1.0686458
10	0x4110fe9e	9.062162
11	0x4157bb4c	13.483227
12	0x3dcd4bce	0.10024224
13	0x3ec65bce	0.38741916
14	0x41453373	12.325061
15	0x4109fec1	8.624696
16	0x3b859a15	0.004077206
17	0x1c509432	6.9012965e-22
18	0x4159a284	13.602177
19	0x3e2dc587	0.16969882
20	0x4132175c	11.130703
21	0x3b5b83d6	0.0033495328
22	0x00000000	0.0
23	0x40dab0d8	6.8340874
24	0x3faedaa3	1.3660473
25	0x3f337cf0	0.70112514
26	0x384868c5	4.778129e-05
27	0x40f4e765	7.6532464
28	0x00000004	6e-45
29	0x00000000	0.0
30	0x00000004	6e-45
31	0x00000000	0.0
32	0x3f9345db	1.1505693
33	0x3f12e164	0.5737517
34	0x3e4e2a2f	0.2013328
35	0x3f47154e	0.77766883
36	0x3e6fd5ba	0.23421374
37	0x3ec955c1	0.39323238
38	0x4126e33b	10.430476
39	0x40efe5f6	7.4968214
40	0x3eb51a30	0.35371542
41	0x3fd5d3cc	1.670526
42	0x40729ac5	3.7906964
43	0x40fbca2d	7.8684297
44	0x3adf1826	0.0017020747
45	0x3d238115	0.039918024
46	0x3e528e86	0.20562181
47	0x415d03a5	13.81339
48	0x3f26518f	0.649682
49	0x41840dda	16.506763
50	0x3e1284dd	0.14308496
51	0x4155a65b	13.353114
52	0x4110705b	9.027431
53	0x411f009d	9.93765
54	0x413a914d	11.660474
55	0x3e5ed537	0.21761023
56	0x3db91e1d	0.09038947
57	0x3f2cea8f	0.6754541
58	0x3f118b77	0.5685343
59	0x3dde59c0	0.10856962
60	0x3a965009	0.0011467944
61	0x3be9e312	0.0071376646
62	0x415a5cbe	13.647642
63	0x00000004	6e-45
64	0x415986b6	13.595388
65	0x3eab33c2	0.33437926
66	0x412bcc40	10.737366
67	0x40f149b4	7.540247
68	0x40b7355e	5.7252645
69	0x40936025	4.6054864
70	0x3fef3093	1.8686699
71	0x3b1eaecb	0.0024213071
72	0x40e6fca9	7.2183423
73	0x3c5debc5	0.013544981
74	0x00000000	0.0
75	0x3a007ced	0.0004901428
76	0x3d9ee264	0.07758024
77	0x3ec9f222	0.39442545
78	0x41745983	15.271853
79	0x3ef13937	0.47113964
80	0x4056aceb	3.354304
81	0x3b8daf77	0.0043238956
82	0x3f71e52c	0.94490314
83	0x41471800	12.443359
84	0x00000004	6e-45
85	0x3f82d84b	1.0222257
86	0x3f5a250f	0.85212797
87	0x3c3f2433	0.011666345
88	0x3c9bb51e	0.019007262
89	0x3e3a11be	0.1817083
90	0x3f4c2632	0.7974578
91	0x00000004	6e-45
92	0x00000000	0.0
93	0x40e98268	7.2971687
94	0x400a8613	2.1644332
95	0x09850cd4	3.203065e-33
96	0x40bae918	5.840954
97	0x3b90eeda	0.0044230046
98	0x3a400ba5	0.0007325954
99	0x39e15e67	0.0004298568
100	0x3b3fff2f	0.0029296388
101	0x3e3176fc	0.17330545
102	0x3ab74ed0	0.001398528
103	0x3f071725	0.5276969
104	0x3dc0844c	0.094002336
105	0x3e4b02af	0.19825242
106	0x3f5c7840	0.86120987
107	0x3e50aee4	0.20379215
108	0x3f4fe082	0.81201947
109	0x3b68f7ac	0.0035548015
110	0x00000004	6e-45
111	0x3e259af3	0.1617239
112	0x3c37ce5f	0.011218636
113	0x4019da35	2.4039433
114	0x3efea6e0	0.4973669
115	0x41190ec3	9.566104
116	0x3dc61faa	0.09674008
117	0x3f8a6fac	1.081533
118	0x00000000	0.0
119	0x4117a368	9.477394
120	0x40ef761d	7.483168
121	0x00000000	0.0
122	0x4114de72	9.304308
123	0x31d42e33	6.1752643e-09
124	0x3e33d319	0.17560996
125	0x3f4913c0	0.7854576
126	0x3e4ea97c	0.2018184
127	0x3d2965a8	0.041356713
128	0x3dda67fe	0.10664366
129	0x3d8e6997	0.069537334
130	0x381ae15c	3.6926343e-05
131	0x00000000	0.0
132	0x3d66ba55	0.056330044
133	0x39c717db	0.00037974012
134	0x00000000	0.0
135	0x3d199058	0.037491173
136	0x00000000	0.0
137	0x3ef3b8fb	0.47602066
138	0x3fda808d	1.707048
139	0x00000000	0.0
140	0x40da4a56	6.821574
141	0x40c60fcf	6.1894298
142	0x3fe9a4fe	1.8253477
143	0x40f13884	7.538149
144	0x3ea892e5	0.32924572
145	0x3e665492	0.22493199
146	0x3efaf690	0.49016237
147	0x3f0b037b	0.54302186
148	0x3c1a104f	0.009403302
149	0x3cec968c	0.02888038
150	0x3edbbf81	0.42919543
151	0x404c3d29	3.191233
152	0x00000000	0.0
153	0x3ec0a4b1	0.3762565
154	0x3be4ee5a	0.0069864215
155	0x3d0cee4d	0.03440695
156	0x00000004	6e-45
157	0x3f1871c1	0.59548575
158	0x3d56e9a0	0.052468896
159	0x3d0ff512	0.035145827
160	0x3f6e2fed	0.9304188
161	0x3f0db305	0.5535129
162	0x3cfd8940	0.030949235
163	0x3b1727d7	0.0023064518
164	0x3ec3d742	0.38250166
165	0x00000000	0.0
166	0x3db34087	0.08752542
167	0x412acf3d	10.675595
168	0x3f429c52	0.76019776
169	0x00000000	0.0
170	0x40c84220	6.258072
171	0x3a0d1c6d	0.0005382959
172	0x410de5b5	8.868581
173	0x3ca6e06d	0.020370686
174	0x00000004	6e-45
175	0x3dad4c3a	0.08461805
176	0x3ae48d7f	0.0017437189
177	0x3fa92b7c	1.3216395
178	0x3dc5c174	0.09656039
179	0x3d809ee8	0.06280309
180	0x3b4c9d28	0.0031221602
181	0x3fe2bb40	1.7713394
182	0x3de0dcee	0.10979639
183	0x4160e8de	14.056852
184	0x4129e2ba	10.617853
185	0x412e19af	10.88127
186	0x40b01e81	5.5037236
187	0x3e9ccdf9	0.30625895
188	0x408ffdbc	4.4997234
189	0x3e816735	0.25274053
190	0x41265f1b	10.398219
191	0x3b38542f	0.002812635
192	0x3c67d318	0.01414945
193	0x403ed464	2.9817133
194	0x40e5aa7f	7.1770625
195	0x3a19109c	0.0005838962
196	0x40717729	3.772898
197	0x3cca6626	0.024706911
198	0x3d9c7f22	0.07641436
199	0x3f60dee7	0.8784012
200	0x410f9368	8.973488
201	0x416fc536	14.985647
202	0x40513f40	3.2694855
203	0x3fa4f53d	1.2887341
204	0x3d54d88f	0.05196434
205	0x409a456f	4.820976
206	0x3fbeac9f	1.489643
207	0x3b13e66a	0.0022567757
208	0x3b150fb0	0.0022744946
209	0x3e71fabe	0.23630807
210	0x3f4e4b80	0.80583954
211	0x3f80b923	1.0056499
212	0x3a721524	0.00092347176
213	0x412b7e75	10.718373
214	0x3e5b4a9d	0.21415181
215	0x41480b1f	12.502715
216	0x00000000	0.0
217	0x412e29a8	10.88517
218	0x00000000	0.0
219	0x3e4712cc	0.19440764
220	0x3e4c21fe	0.19934842
221	0x4048801d	3.1328194
222	0x40c1f5da	6.061261
223	0x3f2becb2	0.67158043
224	0x3fab1312	1.3365195
225	0x3886ebaf	6.4335174e-05
226	0x00000004	6e-45
227	0x3d36907f	0.044571396
228	0x4180f7cf	16.121
229	0x3d9d985b	0.07695075
230	0x00000000	0.0
231	0x40d1f24b	6.560827
232	0x3f4ca8a8	0.7994485
233	0x00000000	0.0
234	0x40484a81	3.1295474
235	0x3c6345b4	0.013871599
236	0x3e972f59	0.2952831
237	0x4115911e	9.347929
238	0x3a9bac78	0.0011876961
239	0x3cdb52a2	0.0267728
240	0x3e01d75f	0.12679814
241	0x362d1315	2.5790116e-06
242	0x355a69a3	8.136505e-07
243	0x41285b1f	10.522246
244	0x3f92d0f5	1.1470019
245	0x3d840e89	0.06448085
246	0x4019bdfd	2.402221
247	0x407942da	3.8947053
248	0x00000000	0.0
249	0x4181625c	16.173027
250	0x35989f54	1.1371253e-06
251	0x00000000	0.0
252	0x3ff16363	1.8858455
253	0x3df11e14	0.11773315
254	0x3e583cfe	0.21117017
255	0x3b0887d7	0.002083292

model.2.running_var f4 [512]
0	0x3f0dc2d4	0.5537541
1	0x41b327fe	22.394527
2	0x3865b45b	5.4765824e-05
3	0x418ca934	17.582619
4	0x41151691	9.318009
5	0x407ff7fd	3.999511
6	0x35c31820	1.4535653e-06
7	0x3f88872e	1.0666254
8	0x3f22cff7	0.6359858
9	0x3ed53869	0.416446
10	0x41b59d97	22.701948
11	0x4205d4b0	33.457703
12	0x3e17c23e	0.14820191
13	0x3f387a50	0.72061634
14	0x422af2a6	42.73696
15	0x42015525	32.33315
16	0x3afd7fec	0.0019340492
17	0x1a0b7cac	2.8845235e-23
18	0x41c2be5d	24.34295
19	0x3ead6459	0.33865622
20	0x41b9387d	23.152582
21	0x3b4a7254	0.0030890899
22	0x00000004	6e-45
23	0x413248e9	11.1428
24	0x3fc4f48f	1.5387133
25	0x3fe07137	1.753455
26	0x36e25a0b	6.7458072e-06
27	0x417de4c4	15.868351
28	0x00000004	6e-45
29	0x00000004	6e-45
30	0x00000004	6e-45
31	0x00000004	6e-45
32	0x3e8377f4	0.25677454
33	0x3ede073f	0.43364903
34	0x3ed5e8df	0.4177923
35	0x3f868bd5	1.0511423
36	0x3ed542e0	0.41652584
37	0x3f38e44e	0.72223365
38	0x41707544	15.028629
39	0x41fba5ae	31.455898
40	0x3e75cf16	0.24004778
41	0x400053e9	2.0051215
42	0x4144bbfb	12.295894
43	0x40974a98	4.7278557
44	0x3ab46f2b	0.0013766041
45	0x3d20439e	0.039126985
46	0x3e4bd880	0.19906807
47	0x423f9490	47.89508
48	0x3f03fe0f	0.5155954
49	0x4252ac8c	52.668503
50	0x3e02ffb6	0.12792858
51	0x427e1bba	63.527077
52	0x415e4dc4	13.893986
53	0x422b7294	42.861893
54	0x42251007	41.26565
55	0x3e3412ca	0.17585292
56	0x3d0b5365	0.034015078
57	0x3ec3122b	0.380998
58	0x3e44ebf2	0.19230631
59	0x3e386f68	0.18011248
60	0x39eba680	0.00044946745
61	0x3c0b1ea7	0.008491195
62	0x426080eb	56.125896
63	0x00000004	6e-45
64	0x42633a86	56.80715
65	0x3f48c89e	0.7843112
66	0x41be3dfb	23.780264
67	0x42067b6d	33.620533
68	0x4144a332	12.289843
69	0x4151cecd	13.112988
70	0x3ff19fea	1.8876927
71	0x3ac1be95	0.0014781529
72	0x41379283	11.473269
73	0x3c4d6371	0.012535916
74	0x00000004	6e-45
75	0x390fcdf1	0.00013714262
76	0x3ddb6688	0.10712916
77	0x3f8e5256	1.1118877
78	0x42332307	44.784206
79	0x3fbc9185	1.4731909
80	0x3f5973fe	0.84942615
81	0x3b610830	0.0034337156
82	0x3fcce52d	1.6007439
83	0x423998ab	46.39909
84	0x00000004	6e-45
85	0x3f3af746	0.7303356
86	0x3fa14b6a	1.260114
87	0x3c18b29a	0.009319926
88	0x3c842d5e	0.016134914
89	0x3e0af9ae	0.13571808
90	0x3ef80207	0.48439047
91	0x00000004	6e-45
92	0x00000004	6e-45
93	0x41a27e3a	20.311634
94	0x3fabe4ca	1.3429196
95	0x08f62599	1.4814426e-33
96	0x40a51467	5.1587405
97	0x3bab1d17	0.0052219736
98	0x39b6c8a8	0.00034863246
99	0x397254b8	0.00023110479
100	0x3ad9a014	0.0016603493
101	0x3ebd4f5a	0.36974603
102	0x39a6802f	0.00031757492
103	0x3eb2caeb	0.3492044
104	0x3d25d7ac	0.040488884
105	0x3ecddf80	0.4020958
106	0x3fb3995c	1.4031177
107	0x3ee3aeb9	0.4446924
108	0x403a3716	2.9096122
109	0x3adf55f2	0.0017039164
110	0x00000004	6e-45
111	0x3e0f0acf	0.13968967
112	0x3c02e465	0.007989024
113	0x4032fbdb	2.796622
114	0x3f7ec514	0.9951947
115	0x41408af8	12.033928
116	0x3daaf947	0.08348327
117	0x3f3e4917	0.74330276
118	0x00000004	6e-45
119	0x410caefc	8.792721
120	0x414375f2	12.216295
121	0x00000004	6e-45
122	0x41500a02	13.002443
123	0x313516aa	2.635185e-09
124	0x3ec18b3f	0.3780155
125	0x3fdc9c10	1.7235126
126	0x3ebf4b9d	0.37362376
127	0x3d1b35f1	0.03789324
128	0x3e19aef0	0.1500814
129	0x3de0d75a	0.10978575
130	0x361bc710	2.321267e-06
131	0x00000004	6e-45
132	0x3d8d6d19	0.06905574
133	0x38b23e72	8.499333e-05
134	0x00000004	6e-45
135	0x3d14a401	0.03628922
136	0x00000004	6e-45
137	0x3f69a1cb	0.912625
138	0x403efe33	2.984265
139	0x00000004	6e-45
140	0x41c7c23e	24.969845
141	0x40c7bbce	6.2416754
142	0x4001724a	2.0226007
143	0x410ffe0f	8.999526
144	0x3e8bec0c	0.27328527
145	0x3e741a6f	0.23838209
146	0x3f90f679	1.1325217
147	0x3f116325	0.5679191
148	0x3bbe622e	0.005810044
149	0x3cc31188	0.02381207
150	0x3e872aac	0.26399744
151	0x41046636	8.274954
152	0x00000004	6e-45
153	0x3f33a173	0.70168227
154	0x3bbd8e74	0.005784804
155	0x3d04e3f2	0.032443948
156	0x00000004	6e-45
157	0x3f8edc28	1.1160936
158	0x3d891bd5	0.06694762
159	0x3c5b3bd1	0.013380961
160	0x3dfe995b	0.12431594
161	0x3fde4211	1.7363912
162	0x3d04d71b	0.032431703
163	0x3a8e37c9	0.0010850366
164	0x3f57af59	0.84251934
165	0x00000004	6e-45
166	0x3e1a45ee	0.15065739
167	0x420b8098	34.87558
168	0x3f7c66de	0.9859446
169	0x00000004	6e-45
170	0x41b0abed	22.083948
171	0x398554a6	0.00025430805
172	0x41021fd1	8.132768
173	0x3d131fd3	0.03591902
174	0x00000004	6e-45
175	0x3dc89f58	0.097960174
176	0x3ac3bfb1	0.0014934448
177	0x3f5648b3	0.8370468
178	0x3db04d52	0.08608498
179	0x3dbd3499	0.09238548
180	0x3b18c864	0.0023312801
181	0x3f86aa8a	1.0520794
182	0x3e48f884	0.19626051
183	0x420651fd	33.580067
184	0x4205261a	33.28721
185	0x41f2d7a2	30.35529
186	0x40851f26	4.1600523
187	0x3edb6b8f	0.42855498
188	0x3fc3439c	1.5255008
189	0x3ee626e3	0.44951543
190	0x418138de	16.152767
191	0x3b52b080	0.003214866
192	0x3c60dcd8	0.013724528
193	0x41022664	8.134373
194	0x4195d27f	18.727781
195	0x3978d9a0	0.00023732195
196	0x413bd40d	11.73927
197	0x3cc4dcda	0.024031091
198	0x3e044ed4	0.12920696
199	0x400c6ca7	2.1941316
200	0x41892eb3	17.147802
201	0x4214d1b9	37.204807
202	0x3f122db6	0.57101
203	0x3e697618	0.22798955
204	0x3d7f066d	0.062261987
205	0x41229e5e	10.163664
206	0x3eccde0d	0.4001316
207	0x3a8aba3b	0.0010584065
208	0x3ac73bbd	0.0015200299
209	0x3ecfde64	0.40599358
210	0x400b2da1	2.17466
211	0x3fe02932	1.7512572
212	0x3a0a1cfd	0.0005268602
213	0x420e6eb2	35.6081
214	0x3ee22b32	0.4417358
215	0x420ca46c	35.16057
216	0x00000004	6e-45
217	0x4134254a	11.259104
218	0x00000004	6e-45
219	0x3ebc48b4	0.36774218
220	0x3e9c5c17	0.3053901
221	0x406c663b	3.6937397
222	0x40d2bc5a	6.585492
223	0x3f358b82	0.70916
224	0x402eaff4	2.7294893
225	0x37cb1553	2.4209416e-05
226	0x00000004	6e-45
227	0x3d4e5e9a	0.050383188
228	0x42a29b1a	81.30293
229	0x3d574d01	0.05256367
230	0x00000004	6e-45
231	0x41033b4d	8.201978
232	0x3e979f2b	0.29613623
233	0x00000004	6e-45
234	0x3f70a643	0.94003695
235	0x3c3d4364	0.011551712
236	0x3f53ce2b	0.8273646
237	0x41d583a5	26.68928
238	0x39ddd169	0.00042308428
239	0x3cbb7092	0.022880826
240	0x3e935be6	0.2878105
241	0x3532a33e	6.6547716e-07
242	0x33c0dc4b	8.980768e-08
243	0x41ee1336	29.75938
244	0x3f8f63ca	1.1202328
245	0x3db7dcb5	0.089776434
246	0x40bf90f2	5.9864435
247	0x40d75bb6	6.729945
248	0x00000004	6e-45
249	0x42316af4	44.354446
250	0x3403cbe3	1.2274499e-07
251	0x00000004	6e-45
252	0x3f007078	0.50171614
253	0x3e455ed1	0.19274451
254	0x3ecbb208	0.39784265
255	0x3ac5d541	0.0015093462

model.4.weight f4 [256, 512]
0	0xbcf3c0ac	-0.029754959
1	0xbcdcc794	-0.026950635
2	0x3dcba039	0.099426694
3	0x3d930442	0.071785465
4	0x3acc50ff	0.0015588104
5	0x3df730f6	0.120698854
6	0x3dad13ff	0.084510796
7	0xbb998188	-0.004684631
8	0x3d8e1990	0.069384694
9	0xbdac97a6	-0.08427362
10	0x3cf64f83	0.030067211
11	0x3cb3cb46	0.021947514
12	0xbd24002e	-0.040039234
13	0xbda5774c	-0.08079395
14	0xbd048e80	-0.03236246
15	0x3d378cb9	0.044811938
16	0x3c8e5cfe	0.017378327
17	0xbd032753	-0.032019924
18	0xbd56a0b9	-0.05239937
19	0xbd8d89cc	-0.06911048
20	0xba24d5ae	-0.0006287944
21	0x3c0b3b4c	0.008498024
22	0x3e0d0fb0	0.13775516
23	0xbc1fac53	-0.009745675
24	0xbbbc844a	-0.005753075
25	0x3cb3428d	0.02188232
26	0x3e07d0a4	0.13263184
27	0xbd17f4c3	-0.037098657
28	0x3d1017c3	0.03517891
29	0x3dfbafe3	0.12289407
30	0xbc259681	-0.010106684
31	0x3c9894cd	0.018625641
32	0x3d8670e4	0.06564501
33	0xbd3df9f8	-0.046380967
34	0x3c44f2cd	0.012020779
35	0x3be1a751	0.0068864007
36	0x3cb78581	0.022402527
37	0x3c89506b	0.01676198
38	0x3cba9c1c	0.022779517
39	0xbc458587	-0.012055761
40	0xbd8cf5b6	-0.06882803
41	0x3cf49944	0.029858239
42	0xba170e12	-0.00057622895
43	0x3d409516	0.04701718
44	0x3dff649b	0.12470361
45	0xbdca393e	-0.09874199
46	0x3b6db16f	0.0036269089
47	0x3d18a8c6	0.03727033
48	0x3d49a049	0.049225125
49	0x3cf0ad4f	0.029379515
50	0x3d898b01	0.06715966
51	0x3cdaa63c	0.026690595
52	0x3b322e11	0.0027188102
53	0x3d7a2f1a	0.061080076
54	0xbbf749fb	-0.007546661
55	0xbd08f429	-0.033435974
56	0x3dccb8a9	0.09996159
57	0xbd9d84d4	-0.076913506
58	0xbd9a9527	-0.0754798
59	0x3d7b5b35	0.06136628
60	0x3dbb2280	0.0913744
61	0x3c05963b	0.0081534935
62	0x3da3fa3a	0.08006711
63	0xbd9097ca	-0.070602015
64	0xbc6cb37c	-0.014447089
65	0x3d92895a	0.07155104
66	0x3d984acb	0.074361406
67	0x3d406fde	0.046981685
68	0xbc2cff0c	-0.010558855
69	0x3ca0e9c7	0.019642724
70	0x3db6d201	0.08926774
71	0x3e0f74d0	0.14009404
72	0x3abdb735	0.0014474156
73	0xbd91ddfb	-0.071224175
74	0x3c7d2df0	0.015452847
75	0x3c025c7e	0.007956622
76	0xbbfa7800	-0.0076436996
77	0x3d94d977	0.072680406
78	0x3b9b0d76	0.0047318293
79	0x3da73a93	0.08165469
80	0x3cc5c621	0.024142327
81	0x3da27bb8	0.07933754
82	0x3d16d8c5	0.03682782
83	0xbc1718a2	-0.0092221815
84	0x3c65d3fa	0.01402759
85	0x3da5c386	0.08093934
86	0x3da35e83	0.07977011
87	0xbc640907	-0.013918168
88	0x3c844df8	0.01615046
89	0xbdb81adb	-0.08989497
90	0x3e3e8031	0.18603589
91	0xbda47bf1	-0.080314524
92	0x3df40501	0.11915017
93	0x3d49f287	0.049303558
94	0x3d292b06	0.041300796
95	0x3d2a0b4a	0.041514672
96	0x3d09bbff	0.033626553
97	0x3d841e9f	0.06451153
98	0x3dd7d519	0.10538692
99	0x3ce6e9e9	0.028187709
100	0x3c564c1d	0.01307967
101	0x3d6c94d3	0.057759117
102	0x3d5e331f	0.05424797
103	0x3e08b5eb	0.13350646
104	0xbddcca28	-0.10780746
105	0x3c80f66d	0.015742505
106	0xbd4d4edf	-0.050124045
107	0xba9a0315	-0.0011750186
108	0xbbf95cce	-0.00760994
109	0xbb38b18b	-0.0028181996
110	0x3d199615	0.037496645
111	0xbd2ce162	-0.04220713
112	0x3d6ba822	0.05753339
113	0xbcb94ed1	-0.02262059
114	0x3cafc2c9	0.021455185
115	0x3d1a1102	0.037613876
116	0x3c91b65d	0.017787153
117	0xbe0ee7b7	-0.1395558
118	0xbd0d5f27	-0.034514572
119	0x3d939a4a	0.07207163
120	0x3db06b56	0.08614223
121	0x3dac25ac	0.08405623
122	0xbd9a07a1	-0.07520986
123	0x3d17fe2c	0.03710763
124	0xbd5c5716	-0.05379399
125	0x3d36216c	0.044465467
126	0xbda5f4d1	-0.08103336
127	0x3cac1cee	0.021009888
128	0x3c38acb3	0.011271643
129	0x3d905e6e	0.07049261
130	0x3ce7f669	0.02831574
131	0xbcd1b9d8	-0.025601313
132	0xbd049b9c	-0.032374963
133	0xbd69ecc7	-0.057110574
134	0xbe0fccdc	-0.14042991
135	0x3dfdb816	0.12388627
136	0xbe3ae3bb	-0.18250935
137	0xbcdece60	-0.027198017
138	0x3ccd292b	0.025044044
139	0x3d793d6d	0.060849596
140	0xbd583ccb	-0.05279235
141	0xbd0bd86e	-0.03414195
142	0x3cbffa2b	0.02343472
143	0xbd23854e	-0.03992205
144	0xbcb28718	-0.021792933
145	0x3e0eb7e0	0.1393733
146	0x3d8f520c	0.06998071
147	0x3c7264ab	0.014794509
148	0x3deb9836	0.11503641
149	0xbba4aabc	-0.005025236
150	0xbd4f626a	-0.050630964
151	0x3d363b49	0.044490132
152	0xbdb485ff	-0.0881462
153	0x3d941921	0.072313555
154	0x3e0dbcee	0.13841602
155	0x3ddd874e	0.10816823
156	0xbcda0f63	-0.026618665
157	0x3c694a0c	0.014238846
158	0xbc7e0965	-0.0155051695
159	0x3d2ad298	0.041704744
160	0xbd88fb4f	-0.06688558
161	0xbbc99f96	-0.0061530573
162	0xbceb281d	-0.028705651
163	0x3d9825c0	0.07429075
164	0xbcd81a8e	-0.02637985
165	0xbdb31255	-0.08743731
166	0x3d625894	0.055260256
167	0x3c80aee5	0.015708396
168	0x3d705a4a	0.058679856
169	0xbd3811c2	-0.04493881
170	0xbc9854e8	-0.018595174
171	0x3ccde7c5	0.02513493
172	0x3d4a6f65	0.04942264
173	0x3d534e1a	0.051588155
174	0xbcbb58e5	-0.022869537
175	0xbdcebaed	-0.10094247
176	0x3cc72c4c	0.024313115
177	0x3dab424c	0.083622545
178	0x3c826015	0.015914956
179	0xbd87e95a	-0.06636305
180	0xbd7be9a0	-0.0615021
181	0x3ba1a045	0.0049324357
182	0x3c56f525	0.01311997
183	0x3a5f34c0	0.0008514635
184	0x3cec7ba5	0.028867552
185	0x3d2fc02b	0.042907875
186	0xbba79dea	-0.0051152604
187	0x3d3903e7	0.045169737
188	0x3da7ce66	0.08193664
189	0x3cd12dc6	0.025534522
190	0x3b0a81e9	0.0021134561
191	0xbce1e398	-0.027574345
192	0xbc9908bf	-0.018680928
193	0xb97ab1a0	-0.00023908028
194	0x3c8fb2d2	0.017541323
195	0xbd32fc09	-0.04369739
196	0xbd8ec034	-0.069702536
197	0xbd38d6c6	-0.0451267
198	0x3ce06632	0.02739248
199	0x3d01da88	0.03170255
200	0x3d4442b9	0.047915194
201	0x3d932613	0.071849965
202	0xbe0c4d66	-0.137014
203	0xbcc48763	-0.023990339
204	0x3dd1b3a5	0.102393426
205	0xbaa03790	-0.001222359
206	0xbddc0590	-0.107432485
207	0x3dd64607	0.104625754
208	0x3e6b7f9f	0.22997902
209	0x3d9baf7d	0.07601831
210	0xbcf7a0f6	-0.03022812
211	0xbde80dce	-0.11330758
212	0x3d99ab3a	0.07503362
213	0x3c69330a	0.01423336
214	0xbd4e9276	-0.050432645
215	0x3ca066b7	0.019580228
216	0x3e0d8085	0.13818558
217	0x3cfa6d44	0.03056968
218	0xbd3d8799	-0.046271894
219	0x3d08092a	0.033211865
220	0xbcefd3b5	-0.029275754
221	0x3d929cd0	0.07158816
222	0xbcc304aa	-0.023805935
223	0x3ded3092	0.1158153
224	0xbc80ded9	-0.015731262
225	0xbc1feebc	-0.009761509
226	0xbbbba88d	-0.00572688
227	0xbb87bc73	-0.004142338
228	0xbbda170c	-0.0066555794
229	0xbe01a6a4	-0.12661225
230	0x3e17b5f6	0.14815506
231	0x3c768974	0.01504742
232	0xbd615323	-0.055010926
233	0x3e6d4f49	0.23174776
234	0xbbd7c7c3	-0.0065850927
235	0x3e22a030	0.15881419
236	0x3d52eba7	0.051494267
237	0x3ce8c3a5	0.028413603
238	0x3de1f637	0.1103329
239	0x3d8128b3	0.06306591
240	0xbda14cd3	-0.07875981
241	0xbd6375f0	-0.055532396
242	0x3deae940	0.1147027
243	0x3d488fcf	0.04896527
244	0xbc3d8aac	-0.0115687065
245	0x3d8b49a0	0.06801152
246	0xbc5fa6b4	-0.013650585
247	0xbd0f492e	-0.0349819
248	0xbde113c9	-0.10990102
249	0x3d152b56	0.03641828
250	0x3e2042b8	0.15650451
251	0xbdad5086	-0.08462624
252	0xbc378a1f	-0.011202364
253	0xbd8fc349	-0.070196696
254	0x3c309923	0.010778698
255	0xbd2e996e	-0.04262679
