final/best_recommendation_model.pth (torch, 54473 bytes, 8 tensors)

model.0.weight f4 [32, 5]
000000 98 86 64 be d2 9a bb be c5 6f c0 be 60 37 2a 3e
       -0.22316968 -0.36641556 -0.37585273 0.16622686
000010 e6 e1 19 3e d8 4c 0d be 5d 81 82 be ca 51 42 be
       0.1502758 -0.13798845 -0.2548932 -0.18976513
000020 5b ea 99 be 84 02 89 bd 81 70 a6 3c 32 d8 39 3f
       -0.30061612 -0.06689933 0.020317318 0.7259551
000030 fa b8 6d 3e 48 1a 71 3f 0b 3d 24 bd 63 7d a7 be
       0.23215094 0.94180727 -0.040097278 -0.3271285
000040 06 a0 59 3d 6c c9 1e 3d 05 49 9f be a0 28 be be
       0.053131126 0.03876631 -0.31110397 -0.3714037
000050 af 13 e3 3d 2f 24 44 3f 26 73 4d 3e 35 c1 5c bf
       0.11087739 0.7661771 0.20063457 -0.8623231
000060 89 40 f5 be e4 7c 56 bf 3f f9 2b 3f 9e 23 01 3f
       -0.479008 -0.8378432 0.67177194 0.5044497
000070 a5 68 aa 3f 5a 03 41 3e bc 3c a2 3d c4 59 56 bf
       1.3313185 0.18848935 0.079217404 -0.8373072
000080 88 bd 26 3e 9d 90 3d bf c8 7a 78 3d 88 8d d6 be
       0.16283238 -0.7404879 0.06066397 -0.41904855
000090 bc f5 67 be a8 3b 2e be f9 13 b0 be ce 00 4b be
       -0.22652334 -0.17014945 -0.34390238 -0.19824526
0000a0 ba ae 4e 3d 4a f7 94 3e 50 db 84 3b ad 8e 3a 3f
       0.0504596 0.29094917 0.0040544644 0.72873956
0000b0 a3 07 d3 be 0a 54 bd 3d 5a 29 4d bf 73 97 d7 3d
       -0.41216764 0.09244545 -0.8014122 0.105269335
0000c0 2b 1c bd 3f bb e6 61 bf 42 98 a7 bd 7f fd 75 3f
       1.4774221 -0.8824269 -0.08183338 0.9608993
0000d0 d7 59 ce be 0e a6 97 be ef 00 74 bf e7 07 f4 bd
       -0.40302917 -0.29618877 -0.95313925 -0.1191557
0000e0 80 2c 8a 3f 38 17 a9 3e eb 03 5b 3f 89 49 29 bd
       1.079483 0.33025527 0.85552853 -0.041329894
0000f0 be de 54 be 21 0e c0 be 72 54 52 3f 82 0c c7 be
       -0.20788094 -0.3751078 0.82160103 -0.3887673
000100 2f bb a0 bf 4f cf 9b be 4a 67 2c 3e d5 04 37 3e
       -1.2557124 -0.304316 0.16836277 0.17872937
000110 35 8c 6d 3f fa 95 91 bf 38 b2 01 3b 32 84 00 be
       0.92792064 -1.1373894 0.0019790065 -0.12550429
000120 77 ff 85 bd 8d 62 a5 bf 59 2e ab 3e d1 2f 21 3e
       -0.06542867 -1.29207 0.33433798 0.15740897
000130 c7 ae d3 bf ec 6c 88 3e fa 59 62 be 96 d7 8c be
       -1.6537713 0.266456 -0.22104636 -0.2750823
000140 40 b4 1f 3e b1 74 06 be 28 90 11 3f 6d 46 30 3f
       0.15596104 -0.13130452 0.5686059 0.6885746
000150 02 ed a7 be e8 e6 35 3e 2b 59 87 3f 5d f2 0a bf
       -0.3279801 0.17763865 1.0574087 -0.54276067
000160 61 93 c1 bc 48 c8 4a bd 75 6d 99 bd 07 b0 89 be
       -0.023629846 -0.04950741 -0.074915804 -0.2689211
000170 95 19 14 be dd 4d ce be 40 a8 21 be 77 fe c4 3d
       -0.14462884 -0.4029378 -0.15786839 0.09618848
000180 4e be fb bd 73 a1 7c bf 98 3c 32 be 5d cd 00 3f
       -0.12292157 -0.9868385 -0.17405927 0.5031336
000190 9b 98 92 3e 97 1b e0 be 5b 52 dc be 12 1c 94 3f
       0.28632054 -0.4377105 -0.43031582 1.1571066
0001a0 b8 34 50 bf b5 73 38 3c 33 3e dd be 86 19 ac 3e
       -0.8133044 0.011258055 -0.43211517 0.33613223
0001b0 f2 a7 ba 3e e2 d5 58 3f c7 f9 8c bc 1a f7 2d 3f
       0.36456257 0.8470136 -0.017208947 0.6795517
0001c0 ae 0d 31 3f b7 d6 c4 bf f0 b5 94 3d 02 07 de be
       0.691615 -1.5378026 0.07261264 -0.43364722
0001d0 e3 f4 4c be a9 f1 87 be d1 17 9a 39 ec 77 d9 be
       -0.20015292 -0.2655156 0.00029390914 -0.42474306
0001e0 9a 58 de 3d 0c 63 91 3f c0 33 2f be 0c b3 83 bf
       0.10856743 1.1358352 -0.17109585 -1.0289016
0001f0 f5 57 bd be d5 31 cd be 31 f6 b9 3f 78 a6 a6 3e
       -0.36981168 -0.4007708 1.4528257 0.3254888
000200 b7 84 9a 3d 90 26 84 3e 8e 11 62 be 29 74 2e bf
       0.075448446 0.2581067 -0.22077009 -0.68145996
000210 c3 ad 62 3f cc a7 3b 3e ad 63 60 be e1 13 13 bc
       0.8854639 0.18325728 -0.21913023 -0.0089769075
000220 ab 33 99 bf 16 80 70 3e 1a 32 0c 3d 88 17 ff 3e
       -1.1968893 0.23486361 0.034227468 0.4982264
000230 a8 4f 5c 3c d7 48 ce bf 47 c3 c1 3d e6 df 19 be
       0.013446726 -1.6115979 0.09461074 -0.15026817
000240 37 3d 23 3f c7 b5 b7 bc 7a 6f 76 bf 99 be 58 be
       0.6376528 -0.022425545 -0.9626385 -0.21166457
000250 09 e4 8f 3d 32 6a 8b 3d 62 b3 7a bf 68 43 a2 3e
       0.07025916 0.068073645 -0.97929966 0.31692052
000260 82 ac 94 3e 26 ba 79 bf 4e 2d 16 bd 85 3e 4a bc
       0.29037863 -0.97549665 -0.0366643 -0.012344007
000270 4c 88 9b 3f 4a 1d 36 bd 16 83 b3 3f 6b 7e f6 be
       1.215097 -0.044461526 1.4024379 -0.48143324

model.0.bias f4 [32]
000000 03 16 c4 be 64 a6 3f 3e 14 ad 35 bf ba 22 ce be
       -0.38298044 0.18715817 -0.7096722 -0.4026087
000010 ce c1 9a 3d d7 1a 01 3f 7e 39 91 3e dc a2 80 3e
       0.075564966 0.5043158 0.28364176 0.25124252
000020 fb b7 7b 3f 1e 7a e9 3d 57 a3 84 3f 48 c5 87 3f
       0.98327607 0.11400245 1.0362347 1.060708
000030 9a 2e fc 3e f7 08 0c 3f 2b 9a 10 3f f5 eb c5 3e
       0.49254304 0.5470118 0.5648524 0.38656583
000040 3c bf 89 bf b1 11 db 3d 79 51 8f be 6e 35 8c 3f
       -1.0761485 0.10696734 -0.27991846 1.0953805
000050 11 a9 27 bf 84 d0 37 bf dc 9c 5f 3e 55 5e 2f 3e
       -0.6549235 -0.71802545 0.21837181 0.17125829
000060 10 77 85 3e 28 e4 c8 3d 2e fb 50 3f 9c 1d 11 be
       0.260674 0.09809142 0.8163327 -0.14171451
000070 cc e2 81 be 5d aa cf 3f 33 ae 83 3f 25 58 f3 3e
       -0.25368345 1.6223866 1.0287536 0.47528186

model.2.weight f4 [64, 32]
000000 0e c0 c4 3c bb 03 85 bd 71 76 11 3e 3b 68 c6 bc
       0.02401736 -0.06494852 0.14205338 -0.024219623
000010 a7 ee 85 be 58 5a 65 3f ef 36 9f be ca 60 5a 3d
       -0.2615864 0.8959098 -0.31096599 0.05331496
000020 68 dd 51 3d 09 ca 6b 3e 25 1a bb be 47 72 38 3e
       0.05123654 0.23026289 -0.36543384 0.18012343
000030 1f 46 d4 bc 81 cb e0 bd cf 1b 50 bf 98 18 b9 be
       -0.025912343 -0.10976315 -0.8129243 -0.36151576
000040 33 6c b4 bd 26 a0 f3 3c 1f 43 ca 3d f2 4a b4 3d
       -0.088097 0.02973945 0.098760836 0.08803357
000050 df ae 63 3e 31 84 91 be 50 b8 9e bf d3 44 32 3d
       0.22234677 -0.28421167 -1.2399998 0.043522667
000060 81 96 01 be fc cf c5 3e e7 b4 bb 3e 47 64 c4 be
       -0.12655069 0.38635242 0.36661455 -0.38357756
000070 3d 83 08 bf 14 19 0b 3f 81 37 c0 3e bf 0c 2f 3f
       -0.53325254 0.5433514 0.37542346 0.68378824
000080 3d c0 1a 3e f2 00 1e 3e 04 37 80 be a0 cf 27 3e
       0.15112396 0.15430048 -0.25041974 0.16387796
000090 4f f0 89 3e 2f 98 f9 be da c1 e3 be 5f a7 94 3d
       0.26941153 -0.4874892 -0.44483835 0.07258486
0000a0 dd 99 1d 3e 99 17 18 3e c6 88 9a 3f d7 07 ac be
       0.15390725 0.14852752 1.207299 -0.3359973
0000b0 b4 b1 3b be 42 19 8d bd 3d 3d 0a bf 61 e1 c7 be
       -0.18329507 -0.06889583 -0.5399969 -0.39039138
0000c0 82 5a 27 be 53 33 d3 3c 11 ff 13 bd 1e ee 03 bd
       -0.1634312 0.02578131 -0.036131922 -0.032209508
0000d0 50 8f 14 3e 8c ef 27 bf 88 09 13 bf 49 cd da 3b
       0.14507794 -0.65599895 -0.5743642 0.006677304
0000e0 dd 29 c1 3e 85 76 05 3d fe 4b 8a bc 9d 17 7c be
       0.37727252 0.032583732 -0.016881939 -0.24618383
0000f0 00 4c c4 3c 75 33 40 bf 89 6b 21 bd 1f d8 20 3e
       0.02396202 -0.7507852 -0.039409194 0.15707444
000100 4f 6a 93 bd 74 0f 11 be 82 da 84 3e c9 80 07 be
       -0.07198011 -0.14166051 0.25947958 -0.13232721
000110 1f be 40 3d d5 cf b6 bf b5 68 a5 3d 98 c4 75 bc
       0.047056314 -1.4282175 0.08076612 -0.015000485
000120 78 b0 c2 bc b7 c3 2a bf 00 7d 33 bf 36 c7 99 3e
       -0.023765787 -0.6670489 -0.7011261 0.30034798
000130 13 fb a3 bf 0b 8c 2a 3f ca ac 28 3d 91 cc af be
       -1.2810997 0.6661994 0.04118041 -0.3433576
000140 d1 da cb bd 55 29 cc 3d 39 1a 11 3e 59 02 b3 bd
       -0.09953845 0.09968821 0.1417016 -0.08740682
000150 41 c2 17 3e f6 52 66 3e da 6a a1 3e 13 0a b3 3d
       0.14820196 0.22492585 0.31526834 0.08742156
000160 a9 54 e5 3d bc bd 5b 3e b0 c8 78 bc 49 50 e7 bd
       0.11197788 0.21459097 -0.015184566 -0.1129461
000170 67 b9 d4 be fd 5f 96 be b3 9d 2b bf 85 a2 bc 3e
       -0.415477 -0.29370108 -0.67037505 0.36842743
000180 8a 13 34 3d 2c dc 06 3e 1c 13 33 3e e1 93 cf 3d
       0.043963946 0.13169926 0.17487758 0.101356275
000190 6d 58 65 be c6 2a 2b bf eb 09 3e bd 28 d0 fc 3c
       -0.22397013 -0.6686214 -0.046396177 0.030860975
0001a0 e1 2a 10 3e 35 73 b7 be e6 f2 90 bf d7 75 04 3f
       0.14078857 -0.35830083 -1.1324127 0.5174231
0001b0 13 38 2f 3d 82 13 df bd 7a 0f 2e be a6 43 af be
       0.042778086 -0.10892393 -0.16998091 -0.342313
0001c0 40 ef f7 bd 4c 46 7f bd ad 84 9b 3d 79 27 b5 3e
       -0.1210618 -0.0623229 0.07593665 0.35381678
0001d0 c3 cd fe be e9 ba 17 bd eb bf b0 3d 60 cc af 3d
       -0.4976636 -0.037043486 0.086303554 0.08583903
0001e0 2c 99 36 3e 1a eb 28 bf 54 84 48 3f 39 96 3c be
       0.17831868 -0.65983737 0.78326917 -0.1841668
0001f0 a6 e9 ef be c5 5b d2 3e 39 84 ad bf dd c2 e4 bd
       -0.46857947 0.4108564 -1.3555976 -0.1116998
000200 78 67 e1 3d a0 0f 28 3d 71 45 21 3c 37 7c ff bd
       0.11006063 0.041030526 0.009843216 -0.12474864
000210 e0 62 05 3e 77 21 6b bd 6e 5e 3d be 44 87 59 bd
       0.13025999 -0.05740496 -0.18493053 -0.053107515
000220 a3 92 0b 3d 49 6f c7 bc 8f b4 c5 bc b9 ce 0c be
       0.03407539 -0.024345057 -0.024133949 -0.13750733
000230 ea ca 21 bd 25 ee f6 bd 29 45 a6 bc 59 b8 69 bd
       -0.039500155 -0.12057141 -0.02029665 -0.057060573
000240 fa 0c 3b be e7 53 e6 ba a7 76 54 bc a9 bd ac 3b
       -0.18266669 -0.0017572612 -0.012967742 0.0052716327
000250 d4 09 8e bd 3e af 26 be 58 31 f3 bd a3 cc c0 bd
       -0.06935468 -0.16277787 -0.11874646 -0.09414031
000260 32 7e 12 bd 92 fb be 3d 80 6a 6e be 35 a5 02 be
       -0.03576488 0.09325327 -0.23282814 -0.12758334
000270 79 05 e4 bc bd ad cd bd 4c bd 82 be 41 02 36 be
       -0.02783464 -0.100429036 -0.25535047 -0.17774297
000280 3b 18 d6 3d 40 e7 0c be 17 e9 49 3e ac ca 46 3d
       0.1045384 -0.1376009 0.19717823 0.048533127
000290 e1 76 3a be 41 92 87 bd 00 51 07 bd 92 9a f2 bd
       -0.18209411 -0.066196926 -0.033036232 -0.11845888
0002a0 5c fe f3 3d 0d f9 9d bd 3e 8e df bd 9d 7a a3 3e
       0.119137496 -0.07713518 -0.109158024 0.31929484
0002b0 59 fa e8 bd 2e 12 18 3f 2d 30 0c be 78 58 12 b8
       -0.11375875 0.5940274 -0.13690253 -3.4891505e-05
0002c0 c8 ab 8b 3e 34 ce 02 bd 9d 52 1f 3e 4b f8 89 bd
       0.27279496 -0.031934932 0.15558858 -0.06736811
0002d0 c4 6b 37 3e f9 08 7d 3b ae 61 a8 bd 63 be 23 be
       0.17912203 0.0038610084 -0.08221756 -0.15990596
0002e0 72 1a 3b 3d 10 fa 80 bd de 18 d0 bd eb 72 14 bd
       0.045679517 -0.06297696 -0.10160993 -0.036242407
0002f0 40 e9 e8 be a7 4a f0 bd 4a ce 07 bf 11 6b c0 3e
       -0.45490456 -0.11732989 -0.5304915 0.37581685
000300 1c fd 06 be 18 c8 9d bd f6 5c 39 be 06 2d 80 bd
       -0.13182491 -0.077041805 -0.18101868 -0.062585875
000310 26 e9 95 3c aa f1 1f bf 8f cd 82 3d 08 b2 9f 3d
       0.01829965 -0.62478125 0.063868634 0.07797629
000320 77 b0 66 be 64 58 f0 bd 4a e1 8c 3e 2c 85 49 3d
       -0.22528253 -0.11735609 0.27515632 0.04919927
000330 87 58 5a bd ef 42 bf 3c 17 33 6b 3c e7 cd 40 3e
       -0.053307083 0.023347346 0.0143554425 0.18828546
000340 ea ff 6b bc 21 c0 60 bf 9a a5 f7 3b 43 1b 31 bf
       -0.014404276 -0.87793165 0.007557583 -0.69182223
000350 92 8f 02 be 23 69 85 bd de cf 17 bd 29 e1 27 3e
       -0.1275008 -0.06514194 -0.037063472 0.16394486
000360 65 65 52 be ae b5 c3 3e 24 40 54 3f 00 14 e0 3d
       -0.20546491 0.38224548 0.8291037 0.10941315
000370 9d ce a5 3d ad 6a 40 3f a8 b0 88 3e f3 e3 47 be
       0.08096049 0.75162774 0.26697278 -0.1952055
000380 8f 68 2c be 73 a2 31 3e 0a 6d 08 3f 51 cc 14 be
       -0.16836761 0.17347126 0.5329138 -0.14531066
000390 a3 c5 0d be 58 5a 9a 3e fb fd 17 bc 6c 89 23 3e
       -0.13844924 0.30147052 -0.009276862 0.15970391
0003a0 1b e8 d6 3d cd 9c 9d be 01 56 1d bf 61 75 75 3e
       0.10493489 -0.30783692 -0.61459357 0.23970558
0003b0 e0 75 8d bb 38 fc cb be 53 fb 30 3e 0f 64 85 be
       -0.0043170303 -0.39840865 0.17283373 -0.260529
0003c0 4b 21 bb 3e 2e b9 c6 bd 3c e8 b0 bd 1c 9e bc 3d
       0.36548838 -0.09703289 -0.08638045 0.092098445
0003d0 07 31 df bd 97 f7 e4 3e ca b5 ad 3c 49 b3 3f bd
       -0.10898023 0.44720146 0.021204848 -0.04680184
0003e0 3f 63 31 bd 9a 18 c3 3e db 03 22 3d b8 14 a4 3d
       -0.04330754 0.38104707 0.039554458 0.08011764
0003f0 a6 45 91 3e 26 43 0d bf c1 8e 99 bf da 5a 90 bd
       0.2837345 -0.55180585 -1.199669 -0.070485786

model.2.bias f4 [64]
000000 95 64 67 3e 8e 2d 8a be f4 c1 d4 bd de ea 43 3f
       0.22596963 -0.2698788 -0.10388556 0.76530254
000010 23 fd 67 be a5 10 30 3e 6c 3d f8 3e b0 28 97 be
       -0.22655158 0.1719385 0.4848436 -0.2952323
000020 68 78 37 be 5f ca fa 3d 98 e6 89 bd ca 01 6e 3f
       -0.17917025 0.122456305 -0.067334354 0.9297148
000030 c9 af 98 bf 6d 07 60 3f 88 eb cd 3e 0b 4d 83 3f
       -1.1928645 0.8751133 0.4021876 1.0257887
000040 51 f3 f3 bd 8c 64 1c 3f 1b 1a f1 3e 29 ce be 3d
       -0.11911643 0.6109092 0.4709023 0.09316666
000050 40 8c 9c 3c 10 01 1f 3d 01 a6 11 be 3c e4 68 be
       0.019109845 0.038819373 -0.14223482 -0.22743315
000060 bf 02 b6 be cc e3 99 bd 61 c9 df 3c 16 95 c8 bd
       -0.3554897 -0.07514152 0.027317705 -0.09794061
000070 82 e8 cd 3e 2b e5 88 bd 03 a5 7a 3d fc d9 26 be
       0.40216452 -0.06684335 0.061192524 -0.16294092
000080 70 f5 32 3e 3f 63 8f bd 90 8b ac 3e 34 95 41 be
       0.1747644 -0.070013516 0.33700228 -0.18904573
000090 ed 64 6a 3d bb d2 7d 3f c9 f3 10 3e 6b 90 c3 3e
       0.057225157 0.99149674 0.14155497 0.3819612
0000a0 18 48 78 bd 70 1a 6c 3e 54 1f 0a 3f dd d1 8e 3e
       -0.06061563 0.2305696 0.5395405 0.27894488
0000b0 8d 78 44 3d 40 38 4a bb 36 5e 41 3e 36 e0 f0 3d
       0.04796653 -0.0030856282 0.18883595 0.11761515
0000c0 47 69 62 3e 26 2f 41 be 8e 4b 31 be cd 95 5d bd
       0.22110473 -0.18865642 -0.17313978 -0.05409794
0000d0 19 17 16 3f 0f c4 49 be 05 d9 f1 3d 8a d5 af 3d
       0.58628994 -0.19703697 0.11808971 0.08585651
0000e0 bc b9 a6 3e a4 c0 70 3e 44 3c 9d bf e3 ab b1 3e
       0.3256358 0.23510987 -1.2284017 0.34701452
0000f0 3e df bf bd 82 40 00 bd c6 e0 e1 3c 7c b6 03 3e
       -0.09368752 -0.03131152 0.027573 0.12862581

model.4.weight f4 [32, 64]
000000 c4 5b 1d be cc fb ae bd 31 7c 0c 3c 68 f8 6e 3d
       -0.15367037 -0.0854412 0.008574531 0.058342367
000010 95 1b 06 3d 42 d4 d3 bd d3 e3 de 3c 7c 8d 24 be
       0.032741148 -0.10343219 0.027208244 -0.16069597
000020 d7 85 d6 bd 92 80 de bd c5 82 99 bd 04 9e 3e 3d
       -0.10474747 -0.108643666 -0.074956454 0.046537414
000030 51 f0 78 3d 2d 45 88 bd 5b 6f 49 3d ec eb 02 be
       0.06077606 -0.06653819 0.049178462 -0.1278531
000040 75 09 0f be 71 60 31 bd 24 ab ed 3b 88 3b c3 3d
       -0.13968451 -0.043304864 0.0072530676 0.09532839
000050 d9 90 79 be 3a 1e 8e 3d 9c aa 77 bd 38 cb 8a 3c
       -0.24371661 0.06939359 -0.06046544 0.016942605
000060 6b 01 6c 3d d3 90 98 3b 98 0a d5 3c 42 51 c0 3d
       0.05761854 0.0046559363 0.026006028 0.09390499
000070 92 44 2a be 40 0a 57 be 60 5b 3f 3d 72 c5 9d bd
       -0.1662772 -0.21000004 0.046718 -0.07703675
000080 30 22 f7 bc ff b7 7e bd 3b 99 f3 3d 02 ce be bd
       -0.030167669 -0.06218719 0.11894461 -0.093166366
000090 1d 48 27 3d 24 78 26 bd 6b 0d 43 3c 08 d2 f0 bd
       0.040840257 -0.04064192 0.011905055 -0.1175881
0000a0 a3 8f 0c 3d 04 3d 0a bd 4b d7 0d be f7 26 83 bd
       0.03431667 -0.033749595 -0.13851659 -0.06403916
0000b0 e7 bb f6 bd ba 47 33 bd 3a 9c 8c bd e0 b4 9a bb
       -0.12047558 -0.043769576 -0.06865735 -0.004721269
0000c0 c5 03 4f 3d c8 40 16 be 54 77 51 bd 0c 9c 56 3d
       0.050540704 -0.1467315 -0.05113919 0.05239491
0000d0 c8 ee 05 3d d7 fa 7e 3c a6 79 c2 bb f4 c9 e3 3d
       0.032698423 0.015562735 -0.005934912 0.11122504
0000e0 14 f5 89 bc 7b cd da bd 18 d9 02 3d e9 34 50 3b
       -0.016840495 -0.106837235 0.031945318 0.0031769818
0000f0 a3 ee 12 3d f9 05 78 bd 5b fb e2 bd 50 f4 bb bc
       0.035872113 -0.06055257 -0.110830985 -0.022943646
000100 10 fc a1 3b 5a da f6 bd bf 25 51 3d 0f d2 ba bd
       0.0049433783 -0.12053366 0.051061388 -0.09122097
000110 19 40 82 bd 9a 9c 14 bb 06 fa cc bd 91 6c 8f 3d
       -0.06359882 -0.002267635 -0.10008626 0.07003129
000120 36 ee 3e bd 39 e2 b7 bd 17 fd 23 bd af 25 ff 3b
       -0.046613894 -0.089786954 -0.040036287 0.0077864747
000130 42 73 e9 bc 36 2c f0 bd 25 67 0e bc 3c 47 d1 bd
       -0.028497342 -0.117271826 -0.008691584 -0.10218665
000140 58 ae 3a 3d 46 f3 26 3d 42 43 fd bd 7e 21 ea bd
       0.045576423 0.040759347 -0.12366344 -0.114321694
000150 55 ad 69 be d1 aa e2 bd e2 69 a9 3d 0b 48 45 3d
       -0.22820027 -0.11067737 0.08272149 0.04816441
000160 9c 0a 98 bc f6 9d 9c bd f6 a9 ba 3d c8 cd 5e 3d
       -0.018559746 -0.07647316 0.09114449 0.054395467
000170 64 e1 66 bd 06 ac a3 bd 98 a9 cb 3c 70 c5 76 3c
       -0.056367293 -0.07991795 0.024861142 0.015061721
000180 98 ba 68 bd 36 15 77 bc 76 c8 14 be c8 61 20 3d
       -0.056818575 -0.015080741 -0.14529595 0.03915575
000190 20 20 a3 3d 8b 8a 02 be 0f c9 91 3c dd c8 d8 bd
       0.07965112 -0.12748162 0.017796068 -0.10585187
0001a0 9b 49 a9 bd 51 b7 ef bc ca f3 b0 bd fb 7a 0d be
       -0.08265992 -0.029262217 -0.08640249 -0.13816445
0001b0 90 df 18 be 33 4b be bd f6 b6 2f 3d 6f 85 b0 bd
       -0.14929032 -0.09291687 0.042899095 -0.086192004
0001c0 b8 19 66 bd f1 9a 8b bd 48 96 7f bd 34 f6 3a bd
       -0.05617687 -0.06816662 -0.06239918 -0.045644954
0001d0 1b 73 c0 bd 33 0c 6f bd c4 70 10 be 64 ec 20 bd
       -0.093969546 -0.058361243 -0.14105517 -0.03928794
0001e0 fc bc 80 3d e2 e0 86 3d ee 0d fc 3d 62 5b db bd
       0.06286046 0.06585862 0.123073444 -0.10710789
0001f0 30 2d 0e be de ca 8e 3d fa 0f 18 3d 43 74 08 be
       -0.13884425 0.069722876 0.03712461 -0.133256
000200 d1 2d 8e bc 34 e1 a7 3d 5c ff 97 bd 02 b8 1f bd
       -0.017355831 0.08197251 -0.07421753 -0.038993843
000210 cc 27 11 bd 81 81 38 be f8 04 93 3d 78 4b d6 3c
       -0.035438344 -0.18018152 0.07178682 0.026159033
000220 ae 34 dd 39 80 5c 19 be 0f e4 92 3d 44 df 01 be
       0.00042191654 -0.14976692 0.07172405 -0.12682825
000230 19 22 6e 3d 74 bc c3 bd 0e 92 28 bd 7a 65 59 3d
       0.058137987 -0.09557429 -0.041154914 0.05307529
000240 38 54 3a bd 3b 11 23 3d c9 8c af bd 87 b0 0f be
       -0.045490474 0.039811354 -0.085717745 -0.14032184
000250 02 44 34 bd ab f0 ea bd d4 b7 2c bd 76 70 5f bd
       -0.04401017 -0.11471685 -0.0421675 -0.05455061
000260 42 ac cc bd 74 9f 6c bd 85 69 f7 bc 4a ab b0 bd
       -0.09993793 -0.057769254 -0.030201683 -0.08626421
000270 1c 92 db bc 90 10 9f bd 68 03 6f bd ae 86 ba 3d
       -0.026803069 -0.07766831 -0.058352858 0.09107719
000280 e6 cd fb bd df cc 99 3d f7 f3 07 be 3d e5 0f 3c
       -0.122951314 0.07509779 -0.13276659 0.008782682
000290 a3 d0 22 3c d1 8e 91 bc 2e 51 be bd db 50 33 bc
       0.009937438 -0.017768295 -0.092928275 -0.01094457
0002a0 dc 16 9b bd 75 90 80 bd 1b 83 c7 bd 9e 60 05 be
       -0.075727195 -0.06277553 -0.09741803 -0.13025138
0002b0 f7 27 59 bd 9a 04 0f be c0 85 72 bd c0 ed 2b 3d
       -0.05301663 -0.13966599 -0.059209585 0.041974783
0002c0 1c 01 f9 bc fb 78 3c bd 76 e8 cd 3d aa d2 b0 bd
       -0.030396037 -0.046013813 0.10054104 -0.08633931
0002d0 a0 91 68 bc 99 74 34 3d ad 4b f0 bc d8 c6 b5 bd
       -0.014194876 0.04405651 -0.02933296 -0.08875817
0002e0 85 80 b5 bd 53 92 0d 3c ce 3b d1 3d a0 04 70 3d
       -0.08862404 0.008640843 0.10216485 0.05859816
0002f0 61 c3 a6 bd 6a 5d 3a be 22 77 7d bd 6c 08 58 bd
       -0.08142734 -0.18199697 -0.061881192 -0.052742407
000300 0d 6f 38 bf 9a 2c 90 3e c6 64 89 3e 57 da 82 3e
       -0.7204445 0.28159028 0.26834697 0.25557205
000310 3d b4 9d 3d 3b 8e c2 3d 20 1b 67 be e7 0e 33 3e
       0.07700393 0.094997846 -0.22568941 0.17486154
000320 bf 03 8d 3d 2f 31 b8 3e 95 f7 97 be b7 78 17 3f
       0.0688548 0.35975024 -0.29681078 0.5916857
000330 72 23 91 be a9 0c ad 3e 5a 11 a9 bd ab 58 9e 3e
       -0.28347355 0.3379872 -0.08255263 0.30927023
000340 85 53 47 bc 68 31 eb be b4 87 0a be 29 42 a6 bd
       -0.012165909 -0.4593613 -0.13528329 -0.08118088
000350 d4 f2 ef 3d 87 28 57 be e7 a7 03 3e 3b 05 6f bd
       0.11716238 -0.21011554 0.12857018 -0.058354598
000360 3e 56 93 be f1 d0 c4 3c 43 2a 2b 3e 0d 5a b2 bb
       -0.28776735 0.024025412 0.1671534 -0.005442864
000370 a6 2d 37 3d 1b 0b b5 bd 40 25 28 3d 1f 98 3e bd
       0.044721268 -0.08840009 0.04105115 -0.046531793
000380 1a ed 44 3f 65 cf 26 bf ae 0f 80 bf b3 bd 42 bd
       0.7692429 -0.6516021 -1.0004785 -0.047544193
000390 ed bd 19 3f 8c 04 58 3e 13 fa e8 3e 6c 02 07 be
       0.6005543 0.21095484 0.4550329 -0.13184518
0003a0 b8 81 87 be af e9 0e 3f 15 39 66 be de ac 03 3e
       -0.26466155 0.5582532 -0.22482713 0.12858912
0003b0 f6 9d 34 bf 81 b9 2a be d8 b1 7e bf 16 ce 3d 3f
       -0.7055353 -0.16672327 -0.9949012 0.7414259
0003c0 49 c8 69 bf 21 f1 4c bf d9 84 bc 3e a4 5d ac 3c
       -0.91321236 -0.80055434 0.36820105 0.021040745
0003d0 6e fb 01 3e 21 d3 e1 3e 3a 02 e6 bd a8 5c 7e bd
       0.12693569 0.4410639 -0.112308934 -0.062100083
0003e0 58 07 1d bf 48 0b a6 3d 4f aa ec 3e 6f 80 88 3e
       -0.6133933 0.081076205 0.46223685 0.26660487
0003f0 a9 74 d4 be 87 d5 5c be 0e d1 fb bb c7 fd 34 bf
       -0.41495255 -0.21565829 -0.0076848334 -0.70699733

model.4.bias f4 [32]
000000 ad 6e e1 bd f3 0d 68 be 27 e1 1f be 67 3c ad 3e
       -0.11007438 -0.22661571 -0.15613233 0.33835146
000010 1b 3a f2 bd a3 ab 9f 3d 79 ba a5 3e 6e 52 6a bd
       -0.11827489 0.07796409 0.3236883 -0.057207517
000020 51 f5 3a be 98 d4 0f be 6b ba 86 bd 51 8f 1f be
       -0.18257643 -0.14045942 -0.06578525 -0.15582015
000030 c2 3b 42 3f 65 a5 51 3d dd d7 0f be a5 be 31 be
       0.75872433 0.051183123 -0.14047189 -0.17357881
000040 e5 4b bc 3d 67 a2 5b be b6 d7 5d 3c f1 bb 35 be
       0.09194163 -0.2144867 0.013540199 -0.17747475
000050 09 8f 5b be 74 a8 44 3f 03 c6 c6 bd 4a 98 aa bc
       -0.21441282 0.7681954 -0.097057365 -0.02082457
000060 66 cd 22 3e 31 fb 58 3e d9 94 d4 3e 76 a8 e4 bd
       0.15898666 0.21189572 0.41519812 -0.11164944
000070 fe 6b de bd 71 e7 f6 3d 87 79 91 bc e2 3d 76 bd
       -0.108604416 0.12055863 -0.017758144 -0.06011761

model.6.weight f4 [197, 32]
000000 9b 4d a6 bd 0a d8 1a be b9 06 e9 3c 68 2a 8c be
       -0.08120271 -0.15121475 0.028445588 -0.27376103
000010 00 3e e8 3d 1b db 74 3d 66 fd 78 3e fd 4b c5 bd
       0.113399506 0.059779268 0.24315414 -0.09633634
000020 87 74 07 3d df 77 6e 3e 15 9b cb 3d fe 9a 49 3d
       0.033070114 0.23287915 0.09941689 0.049220078
000030 b2 bd a3 be be de a3 bf 9e 84 05 3e 54 6f 5e 3c
       -0.31980664 -1.280235 0.1303887 0.013576347
000040 35 54 e4 bd a8 02 4b be 49 f8 90 bc 86 bd 5e be
       -0.11148874 -0.19825232 -0.017696517 -0.21751985
000050 00 6b 28 c1 92 e4 b0 bf b2 d7 18 3e 5d 94 62 bb
       -10.526123 -1.3819754 0.14926031 -0.0034573295
000060 cc 9d 96 bc c6 9d 8c 3b 38 b8 54 3d 0f 8a 89 bf
       -0.01838579 0.004291269 0.051933497 -1.0745257
000070 7d b7 23 3e 35 75 4e be f9 24 cc bd 91 b3 05 be
       0.15987964 -0.20161898 -0.099679895 -0.1305678
000080 23 61 e4 3c 38 14 78 bd d9 f9 06 be 5c 37 d0 bc
       0.02787835 -0.060566157 -0.13181247 -0.025417022
000090 20 25 aa be 1d c7 7c 3c 9e 4b c8 3d b7 05 ea bb
       -0.3323145 0.015428332 0.09780048 -0.0071417945
0000a0 38 4e c0 c0 b6 11 88 bd 1f 3c 25 be 4b 9e ff 3c
       -6.009548 -0.06644003 -0.16136216 0.03120341
0000b0 53 0f ba 3d b2 c0 5a c0 c9 4b ed 3c 8b a9 32 be
       0.09084954 -3.4180112 0.028966801 -0.17447488
0000c0 c0 41 51 3e 48 8d 88 be df cf 0d 3e b8 c8 86 be
       0.20435238 -0.2667029 0.13848828 -0.2632501
0000d0 6c 28 03 c1 68 5c 2b bf d1 8e 63 be 46 23 bf bd
       -8.197369 -0.66937876 -0.22222449 -0.093329
0000e0 aa 99 9b bf 86 e0 ba be ea be 8b be e5 79 05 3f
       -1.215627 -0.36499423 -0.27294093 0.5213912
0000f0 b7 7e d6 be 54 66 76 be 8e 8b cb 3c e1 a9 86 bd
       -0.4189355 -0.24062473 0.024846818 -0.065753706
000100 80 98 af be 4a 94 95 3d b2 75 c6 bb 3a 46 65 c0
       -0.34296036 0.073036745 -0.006056511 -3.5824113
000110 6a 7b 4a bf 5a 64 c9 be b8 ef 9e 3e 62 78 0d 3d
       -0.79094565 -0.39334375 0.31042266 0.034538634
000120 d7 88 b5 3d 35 bd ab be 58 36 8a be f4 a3 b2 be
       0.08863991 -0.3354279 -0.26994586 -0.3489071
000130 83 33 6d be 91 7f 4e 3d fd b5 19 be bc b6 f3 3d
       -0.23164181 0.050414626 -0.1501083 0.11900088
000140 8e 44 52 c0 f0 d5 51 3c 1d 9e f3 3d 40 bf 08 be
       -3.2854342 0.012807354 0.11895392 -0.13354206
000150 71 b2 02 bf 5d f6 12 3e 3a d5 7c c0 47 e1 61 3d
       -0.5105353 0.14351793 -3.9505143 0.05514648
000160 92 a5 84 c0 e3 04 0a c0 ac 16 b5 bd b9 a4 c1 bf
       -4.145211 -2.1565483 -0.08842215 -1.5128394
000170 c4 b1 38 c0 48 30 d4 c0 95 5f 30 be db 15 0c 3e
       -2.88585 -6.6308937 -0.17223962 0.13680212
000180 a4 46 e5 be 99 fb 29 be 98 d3 05 be 27 ba bc bf
       -0.44780457 -0.16599883 -0.13068998 -1.4744309
000190 37 32 49 c0 98 32 b9 bf ce 3a 07 c0 73 7b 03 bc
       -3.1436899 -1.4468565 -2.1129642 -0.008025038
0001a0 50 ee 4a bf e8 ca 5e 3e b2 4c 00 bf b4 15 51 be
       -0.79269886 0.2175709 -0.5011703 -0.20418435
0001b0 82 a7 4d bf 75 fa 2e c0 1a 7c 1b 3e fc db ee 3b
       -0.8033372 -2.7340367 0.1518406 0.007289408
0001c0 56 df 9a be 8a a7 33 bd 86 c2 a1 3d 65 8b 01 bf
       -0.30248517 -0.04386095 0.078984305 -0.50603324
0001d0 2f 97 a6 c0 9a 13 c2 bf 07 27 3e be 76 84 b7 3d
       -5.205955 -1.5162232 -0.18569575 0.08960812
0001e0 8f 68 17 c0 ce 99 ce bf a8 36 0c 3e 14 34 3d bf
       -2.3657568 -1.6140687 0.13692725 -0.7390759
0001f0 7c 2a b8 bf aa 50 f8 3d ac e2 a5 3d 4d fe 1a 3e
       -1.4387965 0.121247604 0.08099875 0.1513607
000200 d5 21 de be 19 86 87 bd e9 b2 92 bc 5d cc b1 be
       -0.43385187 -0.06617374 -0.017907577 -0.3472623
000210 fa 33 a2 be 0c 5b 21 c0 be b9 60 bf 98 10 1f be
       -0.3168028 -2.521182 -0.8778342 -0.15533674
000220 38 6f 98 be 79 e2 27 bf 85 bc 8d be e2 9f 78 be
       -0.29772353 -0.65579945 -0.2768289 -0.2427974
000230 e4 55 d4 be 31 36 c4 bf 0b 37 1c 3d 12 83 4f bd
       -0.4147178 -1.5329038 0.03813843 -0.050662108
000240 84 e6 ab bf cd d4 46 bc 0b a3 3c be 30 3d a2 3d
       -1.3429723 -0.012135697 -0.18421571 0.07921827
000250 92 15 8d c0 e4 7e ef be eb 3c 19 c0 ff ca a8 bd
       -4.408883 -0.46776497 -2.3943431 -0.082418434
000260 d4 79 2a bf ea 63 a3 bf 08 0a 54 bf d7 6e 73 bf
       -0.66592145 -1.2764866 -0.82827806 -0.95091003
000270 87 50 ab bf f6 ec 98 bf bb 46 86 3d a3 05 d0 3c
       -1.338395 -1.1947315 0.065564595 0.025393313
000280 71 e3 43 be 47 62 a0 bd 2b 4c e5 bd 54 00 58 be
       -0.19129731 -0.07831245 -0.111961685 -0.21093875
000290 df 86 53 be 64 14 25 c0 e8 68 45 bf d1 c2 11 be
       -0.20656918 -2.5793695 -0.771132 -0.14234473
0002a0 fe 4b b6 be bd 7a 38 bf 1b 48 39 be 16 01 08 3d
       -0.35604852 -0.72062284 -0.18093912 0.03320416
0002b0 09 e0 f1 be 20 52 a9 bf 38 95 a0 3d d6 2a bf 3d
       -0.47241238 -1.3228188 0.07840961 0.09334342
0002c0 92 61 a4 bf 63 74 b4 bc a5 12 42 be 61 2b 19 be
       -1.2842276 -0.022028154 -0.18952425 -0.14957954
0002d0 1f e2 95 c0 ae 32 18 bf 65 c9 20 c0 c8 10 4d 3c
       -4.6838527 -0.5945233 -2.5122921 0.012516208
0002e0 93 16 21 bf 1b ee 94 bf bb 85 51 bf 56 9a 67 bf
       -0.6292507 -1.1635164 -0.8184468 -0.9046987
0002f0 15 64 ac bf 7f 82 89 bf 71 b4 ca bd d1 b2 83 3d
       -1.3468043 -1.0742949 -0.09897698 0.06430591
000300 ca d9 2a be 09 2e 93 bd f8 4f 13 be 98 90 ec 3e
       -0.16684642 -0.07186515 -0.14385974 0.46204066
000310 1d fe cb be 40 00 05 3e f2 75 8b bf b1 e2 fb bd
       -0.3984231 0.12988377 -1.0895369 -0.12299097
000320 da 30 bf c0 8c 4b f3 3d 9d e5 f7 bc 3a 14 3d be
       -5.9747133 0.11879644 -0.030260855 -0.18464747
000330 38 56 56 bf 48 14 03 bf 8e 27 1f 3e 78 9b 88 bd
       -0.8372531 -0.5120282 0.15542433 -0.06670278
000340 97 60 cc bd 75 07 1e be e4 4b 28 be 52 e2 3b bf
       -0.099793606 -0.15432532 -0.164352 -0.7339221
000350 f4 ef f4 c0 6f e0 d9 3e be 0d 84 3e 9c 9e 97 3d
       -7.654291 0.42554042 0.25791734 0.07403299
000360 71 53 9a c0 d2 1e 57 3e ea 75 87 bf b4 ac f0 3d
       -4.8226857 0.21007851 -1.058286 0.117516905
000370 54 9f 11 c0 99 b5 94 be 54 89 3c bd f6 61 88 bc
       -2.2753496 -0.29044798 -0.046029404 -0.016648274
000380 da 05 6a bd 41 35 79 bd 0a d9 1d 3d 30 56 2b 3d
       -0.057134487 -0.060841803 0.038537063 0.04183024
000390 b9 7f 31 3e ee 46 3e be f6 16 09 be e5 0f b0 bd
       0.17333879 -0.18581745 -0.13387665 -0.08596782
0003a0 c3 c7 6f be af 20 92 be 97 30 7c be 67 3d 5e be
       -0.23416047 -0.2854056 -0.2462791 -0.2170311
0003b0 ad c3 c0 be ab 6b 1a 3b 46 33 17 be ca bd c8 3c
       -0.3764929 0.002356271 -0.14765653 0.024504561
0003c0 89 35 6d 3d bf 9e c3 bd 11 78 1c 3e 31 7f d2 be
       0.057912383 -0.09551763 0.15280177 -0.41112664
0003d0 f0 c5 82 bf fb 43 5e bf 83 5f bb bd 6b 2b 14 be
       -1.0216656 -0.8682248 -0.09149077 -0.14469688
0003e0 f8 8c 0a bd 40 da a2 3d 3b c8 73 be b2 d6 e4 3e
       -0.033825845 0.07951784 -0.2380685 0.4469505
0003f0 1d 0e 8d bd 87 52 a6 3c 37 69 d9 3d b2 eb ff bd
       -0.068874575 0.020303024 0.10615771 -0.12496127

model.6.bias f4 [197]
000000 3f 39 d6 be 7b e0 82 3e b3 fa bb bc d1 d7 cb bd
       -0.4184055 0.2556189 -0.022946691 -0.09953273
000010 b0 59 ef be fb 3e fc be 82 dd 13 be 9f ab 02 3e
       -0.46748114 -0.492668 -0.14439967 0.12760781
000020 79 5a 2c 3d 10 32 e7 be 4e ac 1d be 08 56 f2 be
       0.04207847 -0.45155382 -0.1539776 -0.47331262
000030 9c a8 d3 bd 75 dc 52 bd 68 29 49 bf be a6 50 3e
       -0.10334894 -0.051479775 -0.78578806 0.20376107
000040 af 52 81 3c f4 88 92 bd 21 12 38 bd 7e d4 c6 be
       0.015786497 -0.07155028 -0.044939164 -0.38833994
000050 e4 a7 38 bf 37 36 85 3d e4 5a 71 3c 17 53 d9 be
       -0.7213118 0.06504481 0.014731143 -0.42446205
000060 b0 f7 05 bf ab 94 ab 3e 16 a5 31 3e 31 71 8e 3d
       -0.52331066 0.33511862 0.17348132 0.06955183
000070 6a 0d a5 be b8 59 33 bf 18 e9 c0 3e 8a 39 01 bf
       -0.32236797 -0.70058775 0.37677836 -0.5047842
000080 48 df a8 be 03 a4 ca bc 3a 99 28 bf c1 41 87 3d
       -0.3298285 -0.02473641 -0.65858805 0.066043384
000090 0f e8 18 3e 41 db d5 be 81 df b3 3b 0e 76 06 be
       0.14932273 -0.4176884 0.00548929 -0.13130972
0000a0 4e d1 ce 3d 4b 37 10 3e 40 55 11 bd 80 b0 98 3e
       0.100985155 0.14083593 -0.03548169 0.2982216
0000b0 3e 0d 2c be 93 9a 37 3e 21 af 6b bd f9 e4 28 3e
       -0.16801926 0.17930059 -0.057540063 0.16493596
0000c0 1f 6a bb bd 8f 8d 00 bf be 48 1e be fa 97 cd 3e
       -0.091511 -0.50216 -0.15457436 0.4015501
0000d0 79 51 e4 bd a8 be dd bd 2a db 17 be 4d 2f 85 be
       -0.11148352 -0.108273804 -0.14829698 -0.2601265
0000e0 96 c1 12 3f 46 03 0b bf 97 61 1d bf f5 53 9c 3e
       0.5732664 -0.5430187 -0.61477035 0.30532804
0000f0 62 6e 35 bf b2 f3 37 bc df 3c c3 3e 2e e5 72 bd
       -0.70871556 -0.011227535 0.38132378 -0.059300594
000100 a0 c9 8c 3e 7b 29 89 be bb 86 67 3d a5 05 43 bf
       0.27497578 -0.2678946 0.056524973 -0.7618049
000110 39 bf 0b bf fa 8a 6c bd 28 e8 9a bd a6 5d c2 be
       -0.5458866 -0.057749726 -0.075638115 -0.37962073
000120 15 2c 1d bf 18 41 5b 3e 58 ca 17 3d b3 5e 49 bd
       -0.6139539 0.2141155 0.037058204 -0.049162578
000130 48 fd 1c bf 5e f4 ec 3e 21 1e 07 bf 0b cb f3 bb
       -0.61323977 0.46280187 -0.5278035 -0.007439976
000140 cb 8c 12 3e 83 6e 5c bd 3c 51 c3 bd 52 53 96 be
       0.14311521 -0.05381633 -0.095369786 -0.29360443
000150 e3 a3 4b be 9f fa 3f bf ae 0d 2d 3e ef aa 7a 3e
       -0.19886737 -0.7499179 0.1689975 0.24479268
000160 dd 2d 28 bf e4 e5 f7 bd 5b f9 f3 3c c6 62 ef 3e
       -0.6569498 -0.12104395 0.029781988 0.46755046
000170 2b ab 33 3d a0 d7 17 bf 62 56 c0 be d3 6e 87 bd
       0.04386441 -0.5931339 -0.37565905 -0.06612935
000180 4e e8 47 be b4 14 40 bf a0 ac 93 3e 42 c0 41 3e
       -0.19522211 -0.7503159 0.2884264 0.18920997
000190 cb 2f a3 bd 66 43 4b 3e 34 d2 62 be e4 b0 31 3e
       -0.079681 0.19849929 -0.22150499 0.17352635
0001a0 aa 8f 10 be 2a 75 5e bd 58 76 40 be 30 7d db be
       -0.14117303 -0.054310955 -0.18795145 -0.42868948
0001b0 82 0d 63 3d 0f 6e b9 3e 30 05 87 bd bf be 00 be
       0.055432804 0.3621678 -0.06592786 -0.12572764
0001c0 0e 97 b0 be ab bb 27 bd 1d d5 6f 3c 8a 5b 8d 3d
       -0.34490246 -0.04095046 0.0146382125 0.06902225
0001d0 26 65 07 3e bc 52 ec be b7 c3 13 bf 63 42 e8 bc
       0.13222179 -0.4615687 -0.5772051 -0.028351968
0001e0 07 6e cc be 42 b7 e6 be db 76 06 bf 8c 4f 3d bf
       -0.39927694 -0.4506169 -0.5252511 -0.73949504
0001f0 13 e9 0a bf b8 a0 f8 be 46 31 0a bf 55 77 0c bd
       -0.54261893 -0.4856012 -0.53981435 -0.03429349
000200 47 79 7f 3d a1 57 9c 3e 97 99 f6 3d 18 7a ac 3e
       0.06237152 0.30535606 0.12041014 0.336869
000210 db 95 25 3e 08 0f 3d 3d e3 e0 e3 bd 80 47 cd 3d
       0.16170447 0.046156913 -0.11126878 0.10023403
000220 74 a7 42 3d 50 c3 ba 3e 89 b9 41 bd 51 50 c0 3d
       0.047522977 0.36477137 -0.04729608 0.09390319
000230 a3 d1 55 be 3d b5 dc be a9 c5 95 3d 37 0c 0c be
       -0.20880751 -0.43107024 0.07313091 -0.13676535
000240 fa a7 2d 3e 7f f6 03 be 13 0e 1e be 08 d9 cb bd
       0.16958609 -0.12887 -0.15435056 -0.09953505
000250 9f 01 41 3e ec 04 54 bf 23 e1 d8 be bd ec 10 be
       0.18848275 -0.8282001 -0.42359266 -0.14152808
000260 11 8d 8d be 63 c7 0b be eb 4d 4c 3b a3 8f 5f be
       -0.27646688 -0.13650279 0.0031174372 -0.21832137
000270 e2 b7 e7 be 80 47 b1 be 93 17 12 be 68 d8 4b bf
       -0.4525748 -0.34624863 -0.14266805 -0.79627085
000280 ed 20 86 be 7a 49 df be d2 65 99 bd c2 98 47 bc
       -0.26196995 -0.43610746 -0.07490124 -0.012182416
000290 47 86 34 3e e9 97 34 be 6d 92 f6 3c 5e 37 d8 3d
       0.17629348 -0.17636074 0.030099118 0.105574355
0002a0 1b 69 37 bd 42 52 36 3d 44 d3 12 bf 4e e2 e2 3e
       -0.04477797 0.04451204 -0.57353616 0.44313282
0002b0 bf a6 51 be 1f 3f 13 3e c8 e1 08 3e ec c4 0e bf
       -0.20473765 0.14379548 0.13367379 -0.5576923
0002c0 17 c9 47 be 8e 60 46 be 23 93 18 bd a0 cc 33 be
       -0.19510303 -0.1937277 -0.037249696 -0.17558527
0002d0 97 dc 61 be a7 d9 8d 3e 00 b5 f2 be 5b 43 c3 3d
       -0.22056805 0.27705118 -0.47403717 0.095343314
0002e0 89 e5 16 bd 0b 23 33 bd 42 9c 23 bf 05 7c f6 be
       -0.036839996 -0.04373459 -0.63910306 -0.48141494
0002f0 c1 64 25 be a7 ec e3 be f9 82 36 bf fa d5 1b bf
       -0.16151716 -0.4451649 -0.712936 -0.6087338
000300 bd 25 8d bd da fd ba be 8b 44 1d bf 1c 97 39 bf
       -0.06891964 -0.36521798 -0.61432713 -0.724962
000310 48 94 13 bf
       -0.57648134
