final/recommendation_model.pth (torch, 55391 bytes, 4 tensors)

layer1.weight f4 [64, 5]
00000000: 385e a6bd 3775 a3bf c7da 323f e866 d4bf
00000010: a762 eabe 64e7 3dbf 250b 943f e644 13be
00000020: 4a50 f4be bcdb 7d3d ee71 4dbe cb8f a2bf
00000030: 6017 a7bd b121 83bf 673a a93f 01cf a5bd
00000040: fb73 d33f c1ca f2be 71b5 d2bf 2d86 143b
00000050: c8df bbbe 025a 0a3f a424 c13e 2344 f2bf
00000060: 01a9 3c3f 961f 34bd ae8a 6a3f 905d 8fbd
00000070: b2b4 983f 734c f73e cf67 8cbf 6994 80be
00000080: 973a d0bd edfd 31bf 6f33 6f3f feb0 3e3d
00000090: 9d08 af3e ab27 5bbf 6655 7fbf 40a7 f83e
000000a0: 018e 6d3e d353 4abe 36c2 2dbf 0828 823f
000000b0: 677c 21bf 1cb1 e1be 4ef9 b5be 4969 dfbe
000000c0: 3bba 95be a56b 8c3e f0aa 18c0 7c8a e7bc
000000d0: 192a 5ebf 30c9 363f 5ca7 123f ec8d c5bd
000000e0: 8129 913d c213 e43d 1de6 4bbd 7fdc fcbd
000000f0: 185f f7bd a37c d93e 9831 3e3e e01a 93bf
00000100: ec52 e43e 4539 4ebd bd3a 45be ab52 12be
00000110: 37ac 8ebe 42a3 efbe 64ce c03c 644e b33f
00000120: 4824 2cbd 3d59 ba3f 87a8 64bf 1406 90be
00000130: 04fa b3bf 2659 dcbe 0d6c 393f 8dfa 8f3d
00000140: 5cf3 e8be 03a3 2ebf 7c04 723f 5435 3c3e
00000150: c674 573c ab9a 17bf 0dbe 3b3f e4d4 6cbf
00000160: 4f9b a13f bb0a 2a3f cf07 bb3d 0033 603f
00000170: 2b22 12c0 98e9 0b3f 5a7a 40bf e150 f5be
00000180: 01bb c1be 13a8 503f e59e c73f 26ce 93bf
00000190: c6f3 073d 5791 0fbe 5c47 043d 4bf2 b9bf
000001a0: 685e dbbd fab3 9fbc cc3c c6bf 8b18 043f
000001b0: b149 d1bf 34c4 1ebd 5517 693e ce8a 10bf
000001c0: f919 1cbf b208 fcbf 1a3e d3bd 7c37 85be
000001d0: 780f ba3f c4a0 acbd bb4b c7be af27 e1be
000001e0: 96a4 053e 9112 0fbf a7f4 243e 37d2 17c0
000001f0: 24bf 84bf 6503 dcbd b8d2 d0bf 65f5 2bc0
00000200: 7fee 0ebf 379c 253f 867c e2bc 806a 08c0
00000210: f099 c5be 3444 203f 8c72 2d3e 23c3 5b3c
00000220: 8fab 0f3e 0e38 f2bd 5c4a 11be ec32 88be
00000230: 0010 12bf f79c b2bf 200e 553f b407 37bf
00000240: fcfd 253f 3044 f4bc c9d0 e23f 91a8 78bc
00000250: 8937 a1bf 027c e13b e434 b7be b138 0fc0
00000260: d987 113f 75cd 23bf c805 77bf 3989 0dbf
00000270: 2d27 783e 8d06 66bf 9c91 b7be 02aa dd3e
00000280: 154d 843d 27d0 693f e994 0abf ed5d 22bd
00000290: f6cc c23d c880 043e 60b5 75bf 75d4 5cbf
000002a0: 2c75 b6be 615f 49bf 71e5 04be d758 743f
000002b0: 3379 57bf 9ef0 cd3f 0e65 163f 977d 2bbf
000002c0: 534f a83f 952f b73e a65b b0be 2dde 103f
000002d0: 8385 b63d 9a0a 18c0 2c70 05be 4e6f 7fbb
000002e0: 5772 f4be b887 d43c 5728 8cbf 8e2c 9abe
000002f0: 675f 87bf 93c0 b43e abba e4bf 5276 18bf
00000300: ad45 083f 2cb2 4e3f 64d9 7b3b 7613 1cbd
00000310: 565d 8d3e 567f c2bd 2aa4 bd3c 267b e33c
00000320: d64c 383e 51e0 ab3f c31d 56bf 6db8 2c3e
00000330: b0e4 ebbf 2ad3 1dbd a015 54bf 4019 27bf
00000340: 6fb8 d63f 25a3 e0bf 8b74 52be ce16 153f
00000350: d543 a3bf 73f8 e2bd 6c28 63be 9e35 d1bb
00000360: 7e09 5dbf b565 32bf c7ea dfbe 3bad 203f
00000370: 8b0c d5be 9442 cebe 22f8 c7be b68b afbe
00000380: 2bcf e33d 097d 9abe 2877 82be 77be 35be
00000390: 1df2 f63b 14c5 dfbe e428 d2bc b37c 31bf
000003a0: e496 253e 7ca6 c7bf 57db 3d3f f4be c3bd
000003b0: 50a4 933d 11a8 a4be 6e33 e6bd a800 823d
000003c0: 3d45 3ebd 28d6 4dbf 7a99 a23e 3689 893f
000003d0: c526 2a3f b4cd bb3c 71d1 26c0 3a84 993e
000003e0: 5eda 80bf bc3f 123e 8dae 3bbe df27 04c0
000003f0: 7be3 ebbd 2877 d83f 4b0f 883e 6d01 3d3e
-0.081234396 -1.2770146 0.6986508 -1.6593904 -0.4577839 -0.741812 1.1565901 -0.14381751
-0.47717506 0.061977133 -0.20062992 -1.2700132 -0.08158755 -1.0244657 1.3220948 -0.080961235
1.651977 -0.47420314 -1.6461622 0.0022662983 -0.3669417 0.5404359 0.37723267 -1.8927044
0.7369538 -0.043975435 0.9161786 -0.070002675 1.1930144 0.48300514 -1.096918 -0.25113228
-0.10167425 -0.69528085 0.93437856 0.04655551 0.3418626 -0.85607404 -0.9973968 0.48565102
0.23198701 -0.19758539 -0.6787447 1.0168467 -0.6308045 -0.44080436 -0.35541767 -0.43635014
-0.29243645 0.27425876 -2.3854332 -0.028264277 -0.86782986 0.7140074 0.5728662 -0.0964621
0.07087994 0.11136581 -0.04978 -0.12346744 -0.120786846 0.42477903 0.18573606 -1.1492577
0.44594514 -0.050347585 -0.19260688 -0.14289348 -0.27865764 -0.46804243 0.023535915 1.4008298
-0.042026788 1.4558483 -0.8931965 -0.28129637 -1.4060674 -0.43036765 0.724305 0.07030211
-0.45498168 -0.68217486 0.9453809 0.18379718 0.0131504 -0.5922038 0.7333687 -0.92512345
1.2625521 0.66422623 0.09132349 0.8757782 -2.2833354 0.5465331 -0.75186694 -0.47913268
-0.37837985 0.8150646 1.5595366 -1.1547287 0.033191465 -0.14020287 0.032294616 -1.4527067
-0.10711366 -0.019495 -1.5487304 0.5159995 -1.6350614 -0.038761333 0.22762807 -0.564618
-0.6097713 -1.9690154 -0.10314579 -0.26018894 1.4535971 -0.08429101 -0.38924965 -0.4397559
0.13051066 -0.55887705 0.16108952 -2.3722055 -1.0370831 -0.10742835 -1.6314306 -2.6868527
-0.55832666 0.6469149 -0.027647268 -2.1315002 -0.38594007 0.6260407 0.16938227 0.013413223
0.14030288 -0.11827098 -0.14188522 -0.2660135 -0.57055664 -1.3954152 0.8322468 -0.7149613
0.64840674 -0.02981767 1.7719966 -0.015176908 -1.2595073 0.006881238 -0.3578254 -2.2378352
0.5684791 -0.6398538 -0.96493196 -0.5528751 0.24233694 -0.89853746 -0.3585328 0.43293768
0.06460015 0.9133324 -0.5413347 -0.039640356 0.095117494 0.12939751 -0.9597988 -0.86261684
-0.3563627 -0.7866116 -0.1297815 0.9544806 -0.8416931 1.6089056 0.5874795 -0.6698851
1.3149208 0.3577849 -0.34444922 0.56589013 0.08912184 -2.375647 -0.13031071 -0.0038976255
-0.47743484 0.025943622 -1.0949811 -0.30112118 -1.057599 0.35303172 -1.7869467 -0.5955554
0.53231317 0.8074062 0.0038429135 -0.038104497 0.27610272 -0.09496944 0.023149569 0.027768683
0.1799806 1.3427831 -0.8363916 0.16867228 -1.8429165 -0.03853146 -0.828455 -0.65272903
1.6775035 -1.7549788 -0.2055227 0.5823792 -1.2755076 -0.11082544 -0.22183388 -0.0063845655
-0.8634261 -0.6968644 -0.43733808 0.6276433 -0.41611132 -0.4028517 -0.39056498 -0.34286278
0.111234985 -0.3017352 -0.25481534 -0.17748438 0.0075361864 -0.43705046 -0.025654264 -0.693309
0.16170841 -1.5597682 0.7416281 -0.09557906 0.072090745 -0.32159474 -0.11240278 0.063477814
-0.04645275 -0.804049 0.31757718 1.0744998 0.6646541 0.022925235 -2.6065333 0.29983693
-1.006664 0.14282125 -0.18328305 -2.0649335 -0.11517998 1.6911364 0.26574168 0.18457575

layer1.bias f4 [64]
00000000: ba11 8ebe bdd2 ae3e 2b8c 89bf 7f57 833f
00000010: 4a35 c03d 3da5 5bbf ce1c 863f c88f 76bd
00000020: 06ab 8cbf 8c03 6cbe d965 553f 48f4 0ebf
00000030: 5f4c 76be 7570 babc 3f96 433f 99e5 d93f
00000040: 8400 a83f 65a1 123e 5d38 ac3f 12fb 30be
00000050: 86e0 a8bf 99ff 743f dba9 97bd 1b70 b83f
00000060: b6d3 cfbd 523e ec3f 21b9 c93f e240 ccbe
00000070: c83f c9bd 4368 993f 149f a73f 00db 523f
00000080: 43de 493e ea9a 95bd 6c70 423e c323 91be
00000090: 6e93 3a3f 8b5f ef3f 626c d73e 5b2f d5be
000000a0: 3698 713c b4e2 963f b960 d33f dae1 0c3f
000000b0: b0a1 713e 531b 223e 0a2c 4bbe 354f a8be
000000c0: 505f 33bf 1c14 30bf 6a20 103f 444c 93bf
000000d0: cbc8 3cbe 5aca 4dbd cd6e 93bf 9cab 6f3c
000000e0: 104e 053f 3f0e b03e 4c58 293f 27f0 dabf
000000f0: 6f0c 8f3e ab05 14bf 4119 863f 1621 6a3f
-0.277479 0.34145156 -1.0745901 1.0261077 0.09385164 -0.8579901 1.047754 -0.060195714
-1.0989692 -0.23048228 0.8335853 -0.55841494 -0.24052571 -0.022758702 0.7640113 1.7023193
1.3125157 0.1431938 1.3454701 -0.17283276 -1.3193519 0.9570251 -0.07405444 1.4409212
-0.101478025 1.8456519 1.5759622 -0.39893252 -0.098266184 1.1984943 1.3095422 0.8236542
0.19713692 -0.07304938 0.18988198 -0.28347597 0.7288121 1.8701032 0.42074877 -0.41637692
0.014745763 1.1787934 1.6513892 0.5503212 0.23596835 0.15830736 -0.19841018 -0.3287293
-0.7006731 -0.68780684 0.5629946 -1.150765 -0.18435971 -0.050241806 -1.1518189 0.014628317
0.5207224 0.3438587 0.66150355 -1.7104539 0.27939174 -0.5782115 1.0476457 0.91456735

layer2.weight f4 [197, 64]
00000000: f1f9 80bd 7fe9 643e 7101 1fc0 4956 eebe
00000010: bce5 ccbf cc25 d83e 7f67 debf 439b 4dbe
00000020: 3c31 cdbd 9660 98bd 9087 abc0 2ae6 c5bd
00000030: f2e1 063f 70a9 d2bd 5d8a 073e 8a86 0ec0
00000040: c276 13be 826a 8ebf f25d d9be 04b2 083f
00000050: 9e62 0d3e e663 b9bf f83c abbe cb02 95be
00000060: fb48 043f 9193 c43e 5544 71bf fc26 de3d
00000070: aa44 4bc0 b93e febe 1b78 98c0 8042 95bf
00000080: a168 85be 44d4 82bd be47 1a3e 1c03 ebbd
00000090: ad0a e9be 964a 2dbf 03b1 203e 306b febd
000000a0: fa5e 453d c49c 683f 1092 b3c0 48b8 3d3e
000000b0: d636 b3bd 0844 11bd d882 dd3e 2c35 243d
000000c0: 8fcd e83e 7abd a1be 9680 a3bf 00d4 f13d
000000d0: 823a 9bbd c307 763f aba8 58c0 19d5 9bbd
000000e0: 7486 e23c 62db 6fbe 766c b4be fbb9 7f3d
000000f0: 2409 913e 77e1 03bb 3d6e 333e baf7 5d3e
00000100: 5a78 673d 2352 fabe a3a0 73c0 ce0e 09be
00000110: 2999 53bf 0258 b33e f849 27bf e157 6cbd
00000120: ebcf 3cbe 902c b33c 3ea5 1cbf df6f 873d
00000130: ed89 c53c 86bb eebd 7888 ed3d 9563 01c0
00000140: a0f3 0fc0 d24b 4cc0 05de 3c3f fe27 91c0
00000150: b295 efbc d512 32be 3f63 60bf 8f59 77c0
00000160: 4624 a8bd 1164 5abe 3337 86bf 651f 933d
00000170: 4682 66bf 7854 59bf 97a1 6fbf 322f 3bbf
00000180: 7c58 59be f1e2 ecbd f981 9f3e 33e9 9ebf
00000190: 0bf4 1c3e a17a 97bf 2d69 03bf 6c4a 1abd
000001a0: 7b2a c23e 83fc 8cc0 ae94 acc0 2e2c 9cbe
000001b0: 8cfb cfbd 361f ae3d 6253 29bf 10d8 17bd
000001c0: 6c80 bc3e 292b 7a3e 3049 1ac0 4b2c f73d
000001d0: ad12 683d 21c9 db3e 17ae adbe cbcf f7bb
000001e0: df64 123d 5c5c d43d 634e a1bd d0cc 8ebe
000001f0: 0cd8 2cbd dcac 393c 11b1 cd3e 70c7 6e3d
00000200: 8456 ffbe 41c4 dfbe e847 a5c0 2774 7ebe
00000210: e7cd b2be dc76 b43e 00d2 ddbe 9cb1 583b
00000220: c263 7abf 94ca c43d 76da a8be 84a3 3dbe
00000230: bbe0 013d b543 ee3c 2e61 9dbf c73a acbf
00000240: 1bdb debf f5c2 10bf 1701 bcbe d318 d4be
00000250: 9c9e efbd 65ae b5be 86c5 c3be 180d e7be
00000260: 6482 06bf 7589 b8be 71ae 2bbf f8bb 4ebe
00000270: deaa 41bf 17f0 92c0 0083 4abe 6645 febe
00000280: fddb 55bd c10d 40be d72c 7ec0 eb1b f1be
00000290: 6d50 89be bcfd 4bba 704b cbbe 8c8d cebd
000002a0: 49b5 83be ff38 02bf ee83 b1be 93ee d93e
000002b0: 282e d3bc 50be f93d 6445 be3e c8c3 1dbd
000002c0: eb35 883e 4d1f 2f3e 8bad 61c0 9718 92bf
000002d0: 4f9e 0e3e 268a 7cbf abbd 30be da22 123d
000002e0: 5b24 983d 8757 55be d8e3 a9bd 392c ab3e
000002f0: 4e88 9fbf 3564 bdbd 5b30 33c0 1033 35be
00000300: 126f 54bd 6ce6 a1be 08e2 93be 8064 66be
00000310: 18f9 03bf adfe 6a3d f5cb b2be f325 a93c
00000320: 8c7f e63e f09b 34bc 473f f6be 6161 33be
00000330: 0a29 9fbd b5b6 f7bd f29d ed3d 196c 3fbf
00000340: 63a4 85bf bd34 2ebf 3748 81be 84f3 8bbf
00000350: 3608 32bc 0909 2cc0 efd3 1fbe 9fc8 9bbf
00000360: be6a 21bd bf69 08be 54cd 39c0 5596 1ebe
00000370: 7894 24bf 44be 5cbf 9c3a a3be 79d7 93be
00000380: c109 813e c44e 923c 45ec 9ec0 8127 09bf
00000390: 06b0 92be a074 8fbf c348 02bf 2c3d 5abd
000003a0: c4e1 893e 21fe bbc0 cd40 8fbf e3fa a9bd
000003b0: fafb a83d cce8 24bd e35e c9be c0f9 c9bc
000003c0: 6732 e1bf 34db 9abd 4495 a5bf 570e 9cbe
000003d0: ba9b 06be d4ac 8ebf 3a71 0fbe cb73 b8bc
000003e0: 245b 28be e795 0ebd b676 e6bb 75dd 1d3e
000003f0: 1887 6bbe 12ee 14bd d069 113e e3ed 26be
-0.062976725 0.22354697 -2.484463 -0.46550205 -1.6007609 0.42216337 -1.7375335 -0.20078759
-0.10019156 -0.07440297 -5.360298 -0.09663041 0.52688515 -0.10286224 0.13236375 -2.2269616
-0.14400771 -1.1126254 -0.42454487 0.5339663 0.1380715 -1.4483612 -0.33444953 -0.29103693
0.5167386 0.38393834 -0.9424489 0.108472794 -3.176066 -0.4965723 -4.7646613 -1.1660919
-0.26056388 -0.06388143 0.1506643 -0.114752024 -0.45515957 -0.67691934 0.15692525 -0.12422788
0.04818628 0.90864205 -5.61158 0.18527329 -0.087506935 -0.03546527 0.43263888 0.04008977
0.4546933 -0.31589872 -1.2773616 0.11808014 -0.07579519 0.96105593 -3.3852947 -0.076090045
0.027652003 -0.23423532 -0.35239 0.062433224 0.28327286 -0.0020123401 0.17522521 0.21676531
0.05651126 -0.4889079 -3.8066795 -0.13384554 -0.8265558 0.35028082 -0.6534724 -0.057700995
-0.1843869 0.021871835 -0.6118964 0.066131346 0.02411362 -0.11656861 0.11598295 -2.021703
-2.2492447 -3.1921277 0.73776275 -4.536132 -0.029246185 -0.17389996 -0.8765144 -3.8648412
-0.082100436 -0.21327235 -1.0485595 0.071837224 -0.9004253 -0.84894514 -0.9360594 -0.7311889
-0.2122516 -0.11566723 0.3115385 -1.2414917 0.1532747 -1.1834298 -0.5133236 -0.03766863
0.37923035 -4.405824 -5.3931494 -0.30502456 -0.10155401 0.08502047 -0.6614286 -0.037071288
0.36816728 0.24430527 -2.410717 0.12068995 0.056658436 0.42926887 -0.33921883 -0.0075626126
0.03574073 0.10369179 -0.07876279 -0.27890635 -0.042198226 0.011332717 0.40174153 0.058295667
-0.49870694 -0.43704417 -5.1650276 -0.24848996 -0.34922716 0.35246933 -0.4332428 0.0033064848
-0.9780847 0.09608951 -0.32979172 -0.18519408 0.03170846 0.02908502 -1.2295282 -1.3455437
-1.7410616 -0.5654748 -0.3671958 -0.4142519 -0.11700174 -0.35484615 -0.38236636 -0.45127177
-0.5254271 -0.3604237 -0.6706305 -0.20188892 -0.7565135 -4.591808 -0.19776535 -0.49662322
-0.05221175 -0.18755247 -3.9714868 -0.47091612 -0.26819173 -0.0007781645 -0.39705992 -0.10085592
-0.25724247 -0.5086822 -0.34670967 0.4256483 -0.025778845 0.12194502 0.37162316 -0.03851679
0.26603636 0.17101784 -3.5262172 -1.1413754 0.13927577 -0.986483 -0.17259853 0.03567777
0.07428809 -0.2083417 -0.08295411 0.33432177 -1.2463472 -0.092476286 -2.7998264 -0.1769526
-0.051863737 -0.3162111 -0.28883386 -0.22499275 -0.5155196 0.057371784 -0.34921232 0.020647978
0.45019186 -0.0110235065 -0.48095152 -0.17517616 -0.077714995 -0.120953955 0.11602391 -0.7477432
-1.0440792 -0.6804922 -0.25250408 -1.093369 -0.010866215 -2.6880515 -0.1560819 -1.21706
-0.039408438 -0.13321589 -2.9031572 -0.15487035 -0.64289045 -0.8622782 -0.31880653 -0.2887533
0.25202754 0.017859824 -4.9663415 -0.53575903 -0.2864992 -1.1207466 -0.50892276 -0.053280994
0.26930058 -5.8747716 -1.1191651 -0.08299806 0.08251186 -0.040261075 -0.39330205 -0.024655223
-1.7593507 -0.07561341 -1.2936177 -0.3047969 -0.13145342 -1.1146493 -0.14008036 -0.022516152
-0.16441017 -0.034810927 -0.0070331944 0.1541651 -0.23000753 -0.036359854 0.1420052 -0.16301684

layer2.bias f4 [197]
00000000: 51ee c3be 1a71 cabd 317a 973d f287 c9bd
00000010: 180a d5be dfb5 26bf 299a 53bd 16c2 80be
00000020: 45de ccbd 75da 81be d56b fbbe 74f9 8abe
00000030: 1cc2 4ebe 6618 7b3e d290 56bf d1d0 a43e
00000040: 997f 14be 1be3 7fbd b0a3 8bbd 724d 9bbe
00000050: 89ea 27bf 09bc 6cbc 4165 9fbe 1e14 14bf
00000060: 111a 2fbf efe7 e9be da0f 6cbc c0ea 08be
00000070: 367d 313d 3403 2dbf d818 17bd de84 49bf
00000080: 6023 5fbe 1fe9 293e 0a34 39bf 43e4 d0be
00000090: 1127 c739 a96e 19bf 6e05 e0be 1510 703d
000000a0: 5cb3 40be f9e8 cdb9 d82d 5d3b 9549 debd
000000b0: 5eab 94bd 88c0 cc3d 9fd2 4e3e 5bf7 72be
000000c0: 67fc 25bd 2bb4 e6be b7f9 d8be dbbb 213e
000000d0: a7b7 38be a540 b13e e1d6 b4be f190 553d
000000e0: d47f 3c3c 0930 32be 27f1 07bf d011 133f
000000f0: 64c4 5ebf 7a5b 1abe a8da abbd 9953 d4be
00000100: 4cb0 d4be 4605 ffbd 74e7 cabd 3094 4abf
00000110: addf 36bf 36ac 313e 59a7 d4be d93a 07be
00000120: c9fe e8be eff8 df3e 1884 8f3d cd49 883d
00000130: c38a aabe dea9 4b3f 9dae 723c 7544 08bd
00000140: 3846 6abe 60e4 233e 6556 a23e 7e79 21bb
00000150: a7bb a7be f800 35be 7f53 8ebe 0fc2 0dbd
00000160: ee9b 2fbf 0671 61bc ef3e a6bc a9b8 c5be
00000170: dda8 2dbe d862 54bf 9068 5dbf 4e72 88be
00000180: 5fe4 ffbe 4841 fbbe 72f6 15be 8a71 d2bd
00000190: bb95 05bf 3a08 23bd 2db7 323e 01d8 0cbd
000001a0: b915 1c3f 6f41 11be c2e7 d83d dd1f 213e
000001b0: ab03 bebc 734e 9a3e 384c 983d 5e1b 05bf
000001c0: e256 1bbe 85d4 27be 9131 1ebe 39b2 43be
000001d0: bb24 633e 0197 0dbf 8672 20bf 0337 fdbd
000001e0: d827 d9be 276a 0cbf 61ce 28bf 2478 17bf
000001f0: 8f00 a4be bcf1 c7be afc5 44bf 42f6 1fbf
00000200: a1f9 993e 3d36 4c3f 0861 d4bd 95fe 0a3e
00000210: 46cc de3e e4d9 a03b 3a66 233e 92fc 33bd
00000220: 99bb 41be c3bf 91bd f911 ddbe 5c4a 0e3e
00000230: 0ce0 5ebf 00a1 86be 92c1 90be a60d 6c3e
00000240: c5e0 8bbd 3ca2 29bd 7749 8e3d 7186 8fbe
00000250: 46b8 edbd ccfe 4cbf 27a1 21bf 70c7 bdbd
00000260: 8e48 953c 3697 4d3d 9a80 9f3e 84f7 86be
00000270: 6937 883e 6b65 24be 3198 6cbd 41a9 07bf
00000280: 6868 b13d ae7d eebe 9e42 b43e 8fb3 15be
00000290: 09ee 943e 0afa 0ebd 8d14 3dbe a8c0 a33d
000002a0: a70e c6bd 8a28 a1be d75b 09bf 7937 58be
000002b0: 5d92 98be 7b75 a63e c9cd 6dbd dfc1 0abf
000002c0: 31e4 0b3d ee15 a4bd 41e0 c6be 1365 0fbd
000002d0: 44a4 1b3f e240 6e3e 31cf 64bf de10 b3be
000002e0: 14f1 e0bd 66ea b2be c426 71bf 601b 20bf
000002f0: 0367 23bf 24a2 5abf 2226 42bf 493e 19bf
00000300: 7400 f5be c162 b8be 4ce4 67bf 5591 69bf
00000310: b12c b2be
-0.38267758 -0.09884854 0.07396353 -0.09840383 -0.41609263 -0.65121263 -0.05166069 -0.25148076
-0.10003332 -0.25361982 -0.49105707 -0.27143443 -0.20191234 0.24521026 -0.8381473 0.32190564
-0.145018 -0.062472444 -0.0681833 -0.30332524 -0.6559225 -0.014449128 -0.31131938 -0.57843196
-0.6839915 -0.45684764 -0.014408076 -0.133708 0.0433323 -0.6758301 -0.036888927 -0.78718364
-0.21790838 0.16592835 -0.7234503 -0.4079915 0.00037985345 -0.5993448 -0.43754143 0.058609087
-0.1881842 -0.00039274225 0.0033749249 -0.108538784 -0.07259248 0.0999766 0.20197533 -0.23727171
-0.040523913 -0.45059332 -0.42378017 0.15794317 -0.18038808 0.34619632 -0.3532019 0.05214018
0.011505086 -0.17401136 -0.53102344 0.57449055 -0.8701842 -0.15073958 -0.08391315 -0.4147003
-0.41540754 -0.12452178 -0.099074274 -0.79132366 -0.7143505 0.1735085 -0.41533926 -0.13206042
-0.45506886 0.4374461 0.07007617 0.066547014 -0.33308992 0.7955607 0.014812139 -0.03326841
-0.22878349 0.16005087 0.3170654 -0.0024639065 -0.32760355 -0.17676151 -0.27798077 -0.034608897
-0.68597305 -0.013759857 -0.020293681 -0.38617447 -0.16958947 -0.82963324 -0.86487675 -0.26649708
-0.4997892 -0.49073243 -0.14644793 -0.10275562 -0.52181596 -0.039802767 0.17452689 -0.034385685
0.60970646 -0.14185117 0.10591079 0.15734811 -0.023195108 0.30137977 0.074364126 -0.51994884
-0.15169862 -0.16389664 -0.15448596 -0.19110955 0.2218198 -0.5530854 -0.6267475 -0.12364008
-0.4241321 -0.54849476 -0.6593991 -0.59167695 -0.32031676 -0.39051616 -0.7686414 -0.62485135
0.30073264 0.7977026 -0.1037007 0.13573678 0.43515223 0.004908787 0.15956965 -0.04394204
-0.18919219 -0.07116654 -0.43177775 0.13895553 -0.8706062 -0.26294708 -0.28272682 0.23052081
-0.06829981 -0.041414484 0.06947606 -0.28032258 -0.11607413 -0.8007629 -0.63136524 -0.09266555
0.018223073 0.050193034 0.31152803 -0.26360714 0.26604775 -0.16054313 -0.05776233 -0.52992636
0.08662492 -0.4658026 0.35207075 -0.14619277 0.29087856 -0.034906425 -0.18464871 0.07995731
-0.096707635 -0.3147624 -0.5365576 -0.21114911 -0.29799166 0.32511505 -0.05805758 -0.54202074
0.034153167 -0.08011995 -0.38842967 -0.0350085 0.60797524 0.23266938 -0.8937865 -0.34973806
-0.10983482 -0.34944457 -0.94199777 -0.6254177 -0.6382906 -0.85403657 -0.75839436 -0.59860665
-0.47851908 -0.36012843 -0.9058273 -0.91237384 -0.34799722
