final/simple_torch_recommendation_model.pt (torch, 16185 bytes, 7 tensors)

layers.0.weight f4 [64, 5]
000000 0e fe b9 bd a3 16 b9 3e 9a d7 4f be 73 79 be 3e
       -0.0908166 0.36150083 -0.20297089 0.37202033
000010 1d 50 f9 bd a0 ba 81 bd e3 29 ae 3d 86 56 76 be
       -0.121734835 -0.06334424 0.08504083 -0.24056444
000020 ce b3 64 be ce 67 0f bf 7b 6f 9b bd d0 c9 3f be
       -0.22334215 -0.5601777 -0.075896226 -0.18729329
000030 9f fc 2e be 5c de 49 be 07 a6 25 bb 52 27 55 be
       -0.17088555 -0.1971373 -0.0025275962 -0.20815781
000040 6d 60 90 3f ab 4d 38 3e 02 82 c6 bf 29 fa 42 be
       1.1279427 0.17998378 -1.5508425 -0.19040741
000050 2a fe 52 be a2 d1 56 bd b6 ff 39 be ef e4 97 3e
       -0.20604768 -0.052446015 -0.18163952 0.2966685
000060 a7 be b4 be 40 1e 53 be 06 50 01 be e5 ac 89 be
       -0.35301706 -0.20617008 -0.12628183 -0.2688972
000070 c7 e3 2c 3d f7 26 e2 be 9e 62 d0 bc f7 ce dc be
       0.042209413 -0.44170353 -0.02543765 -0.43126652
000080 6e 86 1c bc 54 6f 23 be 62 38 c5 be e2 1f 6a bd
       -0.009553535 -0.15960437 -0.3851958 -0.057159312
000090 9c 44 34 bd 68 27 46 b9 81 63 89 be d5 9b 69 bd
       -0.044010743 -0.00018897431 -0.26833728 -0.05703338
0000a0 75 cc bc be 67 69 dc bf 0e b8 c2 bd 75 6b 86 3f
       -0.36874738 -1.7219666 -0.09507762 1.0501543
0000b0 c5 f8 6f bf ad 87 f6 3b 48 c4 b9 3f 11 4b 41 be
       -0.9373897 0.007523498 1.4513025 -0.18876292
0000c0 a8 be 67 3e 71 9d 78 bf 5c b3 b0 bd be f2 fb bf
       0.22631323 -0.97115237 -0.0862796 -1.9683454
0000d0 47 c6 a3 be f0 99 16 40 b7 54 a5 bd 7c 12 dd bc
       -0.3198721 2.3531456 -0.08072799 -0.026986353
0000e0 1d 2b 1b be 13 cf 0b be b4 03 09 3e 48 f1 7b bd
       -0.15153165 -0.13653211 0.13380319 -0.0615094
0000f0 e6 5f 6a bd 36 d6 ce bd e4 26 d1 3a 73 38 25 be
       -0.057220362 -0.10099451 0.0015957025 -0.16134815
000100 17 15 2b 3d 8f d1 be bd 9c e8 bd 3e 84 b6 87 be
       0.04176816 -0.09317314 0.3709153 -0.26506436
000110 2b 8f 88 be 47 91 88 be f4 a8 87 bd 80 9e 74 3e
       -0.26671728 -0.26673338 -0.06624022 0.23888588
000120 51 66 1c bd 9d 79 76 be 9a 8a 50 bf 0f 1e 24 bf
       -0.038183514 -0.2406983 -0.8146149 -0.64108366
000130 21 30 85 3e be 08 f0 be 72 04 d4 be 7d ca e3 3e
       0.26013282 -0.4688167 -0.41409642 0.44490424
000140 de 01 e9 be e5 22 97 bf 09 77 8a be 5f ec 72 be
       -0.45509237 -1.1807524 -0.27043942 -0.23722981
000150 cb 1e 26 3f 68 63 cf bc f9 4d 47 3e e1 b6 79 be
       0.64890736 -0.025315955 0.19463338 -0.24386169
000160 04 d1 85 be 18 83 05 3d 22 0b e9 bd 45 ce b6 bc
       -0.2613603 0.032595724 -0.113790765 -0.022315154
000170 b5 3d 0b be 91 5f ce 3c 40 bc 14 bf 1c ba 24 be
       -0.13597758 0.025192054 -0.58099747 -0.1608662
000180 ba 5c c9 3f 22 68 31 3e 3d c7 18 c0 c1 3a cb bf
       1.5731423 0.1732488 -2.3871605 -1.5877305
000190 50 20 83 be 25 cb e4 3d 8b c8 71 bd 64 35 a6 be
       -0.2561059 0.11171559 -0.059029143 -0.3246261
0001a0 e3 de 2b 3c 50 68 9c be 9f 42 c2 be 95 2c 7c be
       0.010490152 -0.30548334 -0.37941453 -0.24626382
0001b0 77 66 c8 be ca cb 91 be fd 00 ba bd e6 bd 87 be
       -0.39140674 -0.2847579 -0.0908222 -0.2651207
0001c0 0c a9 d4 be 33 e0 1d bf 4b b7 17 bf 24 6e 18 be
       -0.41535223 -0.61670226 -0.5926406 -0.14885765
0001d0 23 38 8f 3d 82 7a c9 be 20 51 45 be 43 14 89 be
       0.06993129 -0.3935128 -0.19269228 -0.2677327
0001e0 7f 71 a2 3a 48 67 2a be c2 de fd bc be 28 9b be
       0.0012393444 -0.16640961 -0.030990008 -0.3030452
0001f0 8d 2a 9d be 5e 95 85 be 05 c1 1c be 6b b9 b4 be
       -0.30696526 -0.2609052 -0.15308006 -0.35297713
000200 bd fc bf 3e 9c c5 b5 bd c3 a7 d2 bd 8f e7 6a 3c
       0.37497512 -0.088755816 -0.10285904 0.014337434
000210 d7 b9 c7 be a0 29 29 3d 77 3f b2 bd fc 8a 2f be
       -0.39008972 0.041299462 -0.08703511 -0.17142862
000220 64 10 be be e5 a2 e3 be ff 05 03 3e 41 12 c8 bd
       -0.3712188 -0.44460216 0.12795256 -0.09769107
000230 75 0c b5 be b8 8a cf bf 58 95 06 3f df ed d6 bf
       -0.35361066 -1.6214209 0.5257163 -1.6791342
000240 67 a2 45 bf 0c 4f 37 bc b4 32 e4 3f d4 99 7b be
       -0.7720093 -0.01118828 1.7827973 -0.245704
000250 03 d8 cb 3e 1e 01 89 bf 29 c1 62 bd e2 ff d5 be
       0.3981324 -1.0703466 -0.055359993 -0.41796786
000260 85 36 47 be ff 30 04 bf 11 93 74 bd de 32 c3 bd
       -0.19454391 -0.5163726 -0.059710566 -0.095311865
000270 41 b5 a1 3e d6 a7 7a bc 24 72 9e be 11 c9 10 3d
       0.31583598 -0.015298804 -0.30946457 0.035348002
000280 f9 66 55 bd 49 68 47 bd 44 18 ab be 53 1d 29 bf
       -0.052100156 -0.04868344 -0.3341695 -0.6606037
000290 13 93 69 3c ad 97 46 be 54 5b b6 be b2 de 52 3e
       0.014256257 -0.19393797 -0.35616553 0.20592764
0002a0 12 19 80 bf bd 56 b6 3d 3b 01 a7 bf 57 3a 93 3f
       -1.0007651 0.08903263 -1.304725 1.1502179
0002b0 db b4 02 3e 99 5c dc bf ce 4a 03 3f 02 e3 b9 bc
       0.12764303 -1.7215759 0.5128602 -0.022691254
0002c0 c7 61 46 3f f7 31 4c be dd f6 ca 3e f7 88 60 bf
       0.77492946 -0.19940935 0.39641467 -0.8770899
0002d0 36 b0 b2 bd 6b 5a e3 3c 3d 61 f0 bd 3c 6b 9d be
       -0.08725016 0.027753076 -0.11737297 -0.30745876
0002e0 db da bd bd 33 ba 3c bf 9c 27 91 3f 4e 4c c5 be
       -0.09270259 -0.7372162 1.1340213 -0.38534778
0002f0 33 e1 30 3f 73 2a c6 bf 0b 0f a1 be c7 d9 ad be
       0.69093627 -1.5481704 -0.3145679 -0.33955213
000300 1a db 1c 3f 0c 15 14 3e ae ca 96 bf 69 10 03 be
       0.6127182 0.14461154 -1.1780603 -0.12799229
000310 d0 3e 83 be e0 60 bb bd 43 4b 8f be a1 53 80 3d
       -0.2563386 -0.09149337 -0.27987108 0.06265951
000320 0b ba 0b bf 51 2b 85 bd 9a 5a 88 3f ec 1b 95 3e
       -0.54580754 -0.065024026 1.0652649 0.29122865
000330 9a 6e a0 3d a2 0c 8a be 4a 16 8c be 54 1b cd be
       0.078335956 -0.26962763 -0.27360755 -0.40059912
000340 ff 45 15 be 89 a6 1a 3e 9d 66 51 3c 84 1c 42 3f
       -0.14577483 0.1510259 0.012780813 0.7582476
000350 e0 e6 d7 bf 4d a9 28 c0 ef dd db 3e fd 04 b7 bb
       -1.6867332 -2.6353333 0.4294276 -0.0055853114
000360 fd 19 5b be 9e 8a bc be 90 d9 a4 3d e8 5a 08 be
       -0.21396632 -0.36824507 0.08049309 -0.13315928
000370 75 b7 c7 bc e5 f1 f7 3f d7 ed b0 be 65 01 ef bf
       -0.024379471 1.9370695 -0.34556457 -1.86723
000380 20 e2 3e bf 4f be a5 3d bb cc fc 3e 42 b4 5a bd
       -0.7456379 0.08092939 0.49374947 -0.053394563
000390 c3 45 ba bd 3d 6e 74 bf 3a 2a ff be 09 5e 01 3f
       -0.09095337 -0.9548071 -0.49836904 0.5053411
0003a0 9d 51 0f bf f2 bb 6e be 7b d3 85 3e 83 82 88 be
       -0.55983907 -0.23313883 0.2613791 -0.26662073
0003b0 6f 1e b0 3f 68 04 9a bb 03 67 0d c0 bd 40 b7 bf
       1.3759288 -0.0047002323 -2.2094123 -1.4316632
0003c0 0a 99 f2 ba c0 0a b2 be 2d 0d 1e be a9 99 aa be
       -0.0018508744 -0.34773827 -0.15434714 -0.33320358
0003d0 57 54 38 be a6 38 6f be eb 3e 27 bf 8c 98 eb 3d
       -0.18000923 -0.23361453 -0.6533038 0.115037054
0003e0 21 2c bf be 4e c8 ab 3e aa 1a 47 be 6a f5 b8 be
       -0.37338355 0.33551258 -0.19443765 -0.36124736
0003f0 89 bc f6 3d d5 d7 0d bf 87 f1 0a 3e 1d 6b 53 be
       0.12047679 -0.5540746 0.13568698 -0.20646329

layers.0.bias f4 [64]
000000 30 a6 1a 3f ef 63 be 3e 11 6a 8c 3f 8f a2 bc 3f
       0.6040983 0.37185618 1.0969869 1.4737109
000010 4f e4 90 be 3d 9c b7 be 6f d9 e4 3e c3 fe e9 3e
       -0.28299186 -0.35861388 0.4469714 0.4570218
000020 30 e0 a7 3e 7b eb a1 3f 39 6b ac 3f 9e eb 90 3f
       0.3278823 1.2649988 1.3470222 1.1321905
000030 e8 37 46 be 1b b0 b7 be 01 da 81 3f 58 45 c3 be
       -0.19357264 -0.35876545 1.0144655 -0.38138843
000040 48 72 09 3e b7 62 f1 3f 0c e2 1a 3f 68 86 52 3e
       0.13422501 1.885825 0.6050117 0.20559084
000050 6a 72 1f bd 65 af d8 bd 92 f2 b6 3e 9a 1d cc be
       -0.038927473 -0.10580329 0.3573194 -0.39866334
000060 9c 17 b9 be 81 36 75 be 86 47 a5 3f eb 31 5d be
       -0.36150825 -0.23946573 1.2912452 -0.21601073
000070 21 b9 01 3f d9 70 9d 3f 4d f6 98 3f 68 52 da 3f
       0.5067311 1.2300063 1.1950165 1.7056398
000080 b4 08 95 3f c0 9c d4 3f e5 25 86 3e d0 58 c1 3f
       1.1643281 1.6610336 0.26200786 1.5105228
000090 07 9f ae 3f a9 94 0a 3f b3 26 32 3e 0a 32 f3 3f
       1.3642281 0.5413309 0.17397575 1.8999646
0000a0 2d d1 ef 3e 5f 5d 82 be 30 83 60 3f ef 56 40 3f
       0.46839276 -0.25461861 0.87700176 0.7513265
0000b0 d0 ff 61 3f 6f d2 56 3f b9 b9 f5 3e 35 5a 69 3e
       0.88280964 0.83914846 0.47993258 0.22788318
0000c0 17 2b 0d 3f dd 48 d6 3f ce 4b 04 40 b9 ea ee 3f
       0.55143875 1.6740986 2.0671268 1.8665382
0000d0 eb 3c 27 3f 27 8d cc 3e 15 b5 be 3d 90 33 a1 be
       0.6532733 0.3995144 0.093118824 -0.31484652
0000e0 e5 dd a5 3d e5 05 ea 3f b9 10 f8 3f ca 38 d2 be
       0.08098964 1.8283049 1.9380103 -0.41058952
0000f0 fb c5 c7 3f fe 02 22 3f 25 38 7e 3f 02 8d b9 3f
       1.5607294 0.63285816 0.9930442 1.4496157

layers.3.weight f4 [32, 64]
000000 8c 66 a1 be 43 21 6e 3d a3 38 f1 be a6 a0 d3 bd
       -0.3152355 0.05813719 -0.47113523 -0.10333376
000010 10 50 95 3d c0 18 df bc cf 3f a6 bd 6f 8b dc bd
       0.07290661 -0.027233481 -0.08117639 -0.10768782
000020 08 77 fa 3c 3f 90 bb 3b 32 ca 8d be 7d b6 e2 be
       0.030574337 0.0057239826 -0.27693325 -0.44279853
000030 b0 d3 20 be 50 83 5d 3c b3 fe 97 bc 51 0b e8 bd
       -0.15705752 0.013520077 -0.018554067 -0.113302834
000040 64 79 b9 bd dd 26 6e be 0b e8 3a bd 00 ce b8 3b
       -0.090563565 -0.23257013 -0.04563145 0.0056397915
000050 c8 01 fc bc ba d4 e7 bd a3 46 31 be 64 be 74 bd
       -0.030762568 -0.11319871 -0.17312102 -0.059751883
000060 5a 21 82 bd f4 83 1f 3d 01 ee b4 be 44 4e 48 bd
       -0.063540176 0.0389442 -0.35337833 -0.048902765
000070 68 3b 82 3d 5f 67 45 bc b2 21 91 be 62 c7 ed bd
       0.06358987 -0.012048571 -0.2834602 -0.11610295
000080 da 69 da bd dc 9a a6 be c9 34 0e be da 98 0c be
       -0.10664721 -0.32540023 -0.13887323 -0.13730183
000090 63 8e c1 be fc 44 3b bd 96 e9 bf bd 9c cb 98 be
       -0.37803945 -0.045720086 -0.09370725 -0.29842842
0000a0 72 22 8b be e0 1d a6 3c c0 4a b2 bc 91 94 dd be
       -0.27174717 0.020277917 -0.02176416 -0.4327741
0000b0 80 7d 3a bd 53 b0 c2 bc 96 b4 5b 3b 98 73 81 bc
       -0.045529842 -0.023765719 0.0033524386 -0.01580219
0000c0 b0 6b 4a bd 74 16 9b be da e0 cb bd 59 b3 73 be
       -0.049419105 -0.30290568 -0.099549964 -0.23798884
0000d0 53 13 d4 be 80 c3 fa 3a 87 6f a4 bd 20 4c 78 3c
       -0.41420993 0.001913175 -0.08029085 0.015154868
0000e0 c0 b9 1a bd 07 35 8f be 93 f6 a3 be 5e d5 c7 3d
       -0.0377748 -0.27970144 -0.3202406 0.097574934
0000f0 76 87 49 be 1e 91 ee bd e2 fc d0 be 8f 86 8a be
       -0.1968058 -0.11648773 -0.40817934 -0.27055785
000100 76 b2 72 3e cb 79 10 bb 34 58 6e 3c a2 92 7c be
       0.2370089 -0.002204525 0.014547396 -0.24665311
000110 b6 8f d1 bd 28 c7 c5 3c 11 72 4d 3c 9a 3e b1 3d
       -0.10232489 0.024142817 0.012539403 0.086545184
000120 e1 0c 31 3e 47 b0 28 3d 09 6e 84 3e 12 22 7f bc
       0.17290069 0.041183736 0.258652 -0.015572088
000130 24 02 0a 3a a0 e8 f5 3c a5 73 1e bc f0 2d 87 bd
       0.0005264601 0.03001815 -0.0096711265 -0.06600559
000140 d0 ea d9 bd 9a 98 ab 3c 41 61 90 bd 43 62 81 bd
       -0.1064049 0.02094679 -0.070498 -0.0631757
000150 88 e3 f6 3d f6 d7 da 3d 3d 75 ae 3d 5e 46 96 3d
       0.12055117 0.106857225 0.08518455 0.0733764
000160 24 65 c1 3d e8 0f 89 bc f2 53 3e bd fc d2 7f 3d
       0.09443119 -0.016731218 -0.046466775 0.06245707
000170 88 33 cb be ce 3b 49 bc c8 05 cd bd 82 af 57 3e
       -0.39687753 -0.012282325 -0.10010868 0.21063045
000180 76 16 cd bd 78 48 77 bc 79 65 07 3f 96 41 ab bd
       -0.1001405 -0.0150929615 0.5288921 -0.08362119
000190 d3 a6 f5 bd 78 de 00 bf 4c ea 58 3e d1 7e 7f bc
       -0.1199471 -0.5033946 0.21183127 -0.0155942
0001a0 2e 5d 2e be 48 08 f9 3d f7 e4 72 3d f0 e1 b7 3d
       -0.17027733 0.12159783 0.05930039 0.08978641
0001b0 e8 9a d0 3d 69 f2 27 bc 78 a8 b0 3e 8a f7 bb 3e
       0.10185796 -0.010250666 0.3450353 0.36712295
0001c0 9c c8 18 bd 41 2b 3a 3e 11 f6 34 3d 98 52 80 bd
       -0.03730069 0.18180563 0.04417998 -0.062657535
0001d0 ba 90 84 bd 45 d1 96 bc 87 9f 3a 3d d9 25 5d 3e
       -0.06472917 -0.018410334 0.045562293 0.21596469
0001e0 ac 2f c8 3d e6 97 14 3e e6 85 76 bd 7c 65 89 bd
       0.09774718 0.1451107 -0.06018629 -0.0670881
0001f0 1d cf 18 3b c8 25 43 be 74 4b fd 3d 2a e0 ca bd
       0.0023316809 -0.19057381 0.12367907 -0.09906037
000200 35 cc b0 3d 29 32 6c 3d fa 7a 8d bc 79 8d 28 3d
       0.086326994 0.057665024 -0.017270554 0.041150544
000210 ce 0e df 3d a6 6a f2 bd f9 0a f6 3c 01 b0 87 3b
       0.10891496 -0.11836748 0.030034529 0.0041408543
000220 72 2d a3 3e 82 6b 37 bd ad 5e 81 3e a9 6b 19 3e
       0.3187061 -0.04478026 0.25267544 0.14982475
000230 9f b5 ec 3d 04 43 de bd 8b 6a 81 3d eb ff 37 3e
       0.11558079 -0.10852626 0.063191496 0.17968719
000240 49 f1 c2 3d 41 29 01 3e 2f 99 3f 3d 18 06 98 3e
       0.09518678 0.12613393 0.046776947 0.2969215
000250 00 03 83 bc 10 3b f3 3d 1f 49 a5 3c 60 e1 99 bb
       -0.015992641 0.118765 0.020176468 -0.0046960562
000260 a2 c6 f0 bd c0 84 b3 3b 3a 80 f8 bb 52 2d d0 3d
       -0.11756636 0.0054784715 -0.007583645 0.10164894
000270 86 fd ef be f9 75 90 3d 9b 7e 03 bd ea ec 45 3d
       -0.4687311 0.070537515 -0.032103162 0.048321642
000280 ad b2 27 3c b6 30 b1 3c 13 02 0b 3f 28 c8 4b 3e
       0.010235471 0.021629672 0.5430004 0.19900572
000290 24 73 b1 3d e2 56 b2 be f2 19 5b be c9 20 cb 3d
       0.086645395 -0.3483191 -0.21396616 0.09918363
0002a0 8d 0d 48 be 4c c0 6f 3d d2 c5 2c bd 8a 52 65 bd
       -0.19536419 0.058532998 -0.042180844 -0.05598692
0002b0 5f e9 63 3e 74 1a 6a 3d d2 61 37 3e 84 ab 02 3f
       0.22256993 0.057154134 0.17908409 0.5104296
0002c0 6e d9 02 3e 1b d4 0f 3d 83 9e a8 bd ee 6a 71 bd
       0.12778255 0.03511439 -0.08233359 -0.058939867
0002d0 da 3a 4e 3d fd 58 31 bd 75 6a 22 be ad a1 a2 3e
       0.050349094 -0.043297756 -0.15860923 0.31763974
0002e0 54 aa eb bd 14 0c d9 bd 8b f7 a0 be 9c 5f fc bd
       -0.11507097 -0.10598007 -0.3143886 -0.123229235
0002f0 e0 3b 30 bd ce c4 16 3d 0f 7b 87 3e 2f 3f b8 3d
       -0.04302585 0.03680878 0.26461074 0.08996426
000300 29 75 c5 bd 17 30 db 3b 41 a1 7b be 58 17 cb be
       -0.09641487 0.0066890824 -0.24573232 -0.39666247
000310 aa ba 9d 3d a0 0d df bd 7a 61 37 bd 5f 4e 4e 3d
       0.07701619 -0.10891271 -0.044770695 0.05036771
000320 33 2f 1e bd 38 3c 0b 3d 96 17 95 bd a3 0c 7d bd
       -0.03861923 0.033992976 -0.07279889 -0.06177963
000330 59 d5 59 bd 20 53 fb 3c 43 33 3c bc 0e 72 de 3d
       -0.05318198 0.030679286 -0.011486831 0.10861598
000340 da 32 1f be f7 90 a0 be 4a e6 fa bd 2a 83 ca bd
       -0.15546742 -0.313606 -0.122509554 -0.09888299
000350 c0 ff 23 bc 34 57 e1 bd 7a ad de 3c 50 30 6d 3c
       -0.010009706 -0.11002961 0.02718233 0.014476851
000360 28 f9 89 bd be c7 85 3d 9c a3 36 be 8c 0a 46 bd
       -0.06736976 0.065322384 -0.1783585 -0.048349902
000370 c5 dd ac bd ad 43 2a be da e3 0e be 47 ee ac be
       -0.08440737 -0.16627379 -0.13954106 -0.3377554
000380 87 80 0e 3d d8 14 83 be 18 e2 a2 3d bb f7 6e bc
       0.034790542 -0.2560184 0.0795328 -0.014585431
000390 95 3c 11 be 5a d5 48 3d 9c c3 81 bc 0e 7e bf be
       -0.14183266 0.049031593 -0.015840344 -0.3740086
0003a0 d3 d2 99 be 12 bf cd bd a5 77 d0 bd 08 e0 76 3d
       -0.3004366 -0.100462094 -0.101790704 0.060272247
0003b0 28 8d fc bc b2 d5 87 bd 59 c7 27 be b6 19 05 be
       -0.030829027 -0.06632556 -0.16384639 -0.12998089
0003c0 57 38 80 bd 35 01 0d be dd 6b aa be 76 70 88 be
       -0.06260746 -0.13769992 -0.33285418 -0.266483
0003d0 5d 8c 6d be af d4 bb bc 88 21 12 be 0d 6f 79 ba
       -0.23198076 -0.022928564 -0.14270604 -0.0009515144
0003e0 d0 8f 44 3d 48 ae 21 be d3 f9 b3 be 1c 36 52 bd
       0.047988713 -0.1578914 -0.35151538 -0.051321134
0003f0 d9 0c eb be 44 00 ff bd ee 93 2d be fd af 9d be
       -0.4590824 -0.124512225 -0.16950962 -0.3079833

layers.3.bias f4 [32]
000000 47 c4 f2 be f7 b9 7b 40 c9 2d 74 40 62 5c 88 be
       -0.47415373 3.9332254 3.8152945 -0.26632982
000010 ec 3a 79 40 2a 75 a5 be ed f0 7b 40 b0 65 9d be
       3.8942213 -0.32315952 3.93658 -0.30741644
000020 e9 38 88 40 f3 df 8f 40 88 9d 85 40 53 9d 02 bf
       4.256947 4.4960876 4.17548 -0.5102131
000030 6b 3c 70 40 6c 2c 77 40 e8 d5 1f be ee 01 88 40
       3.7536876 3.8620863 -0.15608943 4.2502356
000040 94 6d 84 40 a0 6e 74 40 cd 5f 73 40 1b 6a 85 be
       4.138376 3.819252 3.8027222 -0.26057515
000050 01 49 95 be b8 c5 33 bd 8a e5 1d be 7b f0 81 40
       -0.2915726 -0.04388973 -0.15419593 4.0606055
000060 c9 ae 85 40 cf 00 84 40 a1 e3 7a be 60 31 75 40
       4.177586 4.1250987 -0.24500896 3.8311386
000070 94 5a 9b be 4e 30 82 40 21 97 85 40 cb 67 86 be
       -0.30342543 4.0683966 4.1746984 -0.26251063

layers.6.weight f4 [16, 32]
000000 47 72 70 be c5 45 0f be f4 c0 14 3e a9 3a b7 bd
       -0.23481093 -0.13991459 0.14526731 -0.089467354
000010 2c 9d e1 3d 0c 90 70 be 32 75 bc bd ee 6f 78 be
       0.11016306 -0.2349245 -0.09202041 -0.24261448
000020 9a ac b8 bd 05 0d d5 3d 2e 33 86 bd 28 cc 5c be
       -0.09017296 0.10402874 -0.065527305 -0.21562254
000030 69 44 26 3d a1 7d 9e 3d 49 16 be b9 39 ff d2 bd
       0.040592585 0.077388056 -0.00036256228 -0.10302586
000040 d0 a9 ae bc 01 23 f8 bd 3e 3c c0 3d bb f6 ba 37
       -0.021321207 -0.121160515 0.0938649 2.228782e-05
000050 10 6c a2 3d 67 72 39 bd 6c 91 8c ba 58 f6 8f 3d
       0.079307675 -0.04527512 -0.0010724491 0.07029408
000060 b6 f0 50 3d 68 6c 93 3d 83 2e e5 ba 50 6c 1a 3e
       0.05101081 0.07198411 -0.0017485175 0.1508038
000070 08 52 9b 3c ff a9 ea bd cd 6d ed bb d6 de 6d be
       0.018960014 -0.114582054 -0.0072457553 -0.23229536
000080 a9 2e e7 3c b2 74 73 bd 7f cb 9c b9 15 4e 8b bd
       0.028220491 -0.05943746 -0.00029906255 -0.06802002
000090 13 0f 42 3c fd 12 1f be 57 63 50 be 4c bf 0e be
       0.011844414 -0.15534587 -0.20350395 -0.13940161
0000a0 73 d5 29 be 1b a8 ed bd 04 ab 90 be 5c c0 bc bd
       -0.1658533 -0.11604329 -0.28255475 -0.09216377
0000b0 d1 bc c9 bd e7 ff 27 be d1 8a 52 be 7f 76 aa 3d
       -0.09850467 -0.16406213 -0.20560767 0.083233826
0000c0 b2 1f 32 be e3 3f 1b bd eb b4 a7 ba 28 39 4c be
       -0.17394903 -0.037902724 -0.0012795007 -0.19943678
0000d0 21 4e da bd f6 46 fb 3c 23 1e ba 3d fc 68 0a be
       -0.10659433 0.030673485 0.090877794 -0.13516611
0000e0 6e a3 9d 3d 11 f9 80 be 39 13 40 be 76 48 bf 3c
       0.07697187 -0.25190023 -0.18757333 0.023349982
0000f0 57 1c 89 bc fb 1a 96 3d 65 63 de bd 07 24 96 bd
       -0.016737146 0.07329365 -0.10858802 -0.073310904
000100 e1 a9 b7 bd a6 ca 68 3e 76 20 23 3e d1 f6 9a bd
       -0.08967949 0.22733554 0.15930352 -0.07566608
000110 54 85 0f 3e d7 fd 1a be 6e 1c 78 3e e4 2f f0 bd
       0.14015704 -0.15135895 0.24229595 -0.117278844
000120 53 91 34 3e 23 b2 96 3e a7 e8 8a 3e e9 99 1f be
       0.17633562 0.29432783 0.27130625 -0.15586056
000130 3c 5e 55 3e 83 76 82 3e 2b 8e 2c be f5 62 a2 3e
       0.20836729 0.25481042 -0.16851108 0.31716123
000140 54 d6 7b 3e 4e 75 49 3d 99 c8 ba 3b 93 28 ea 3c
       0.24593478 0.049184136 0.0057001826 0.0285838
000150 07 24 1f bd 33 26 38 3e b8 d7 59 3e 82 1c 9e 3d
       -0.038852718 0.17983322 0.21273696 0.07720281
000160 db d8 84 3e df f8 0a 3e 82 e6 c5 3d ec 44 df 3c
       0.25946698 0.135715 0.096631065 0.027254544
000170 81 e1 86 3b b3 77 33 3e f8 8c 90 3e a8 a8 7e be
       0.0041162376 0.1752613 0.2823255 -0.24869025
000180 48 34 14 be 7b f7 86 3c 29 e3 15 3c 04 c9 01 bd
       -0.14473069 0.01647543 0.0091483975 -0.031685844
000190 c1 6b 15 be d2 fa e0 bc e2 26 c7 bd 3a aa c5 3d
       -0.14591886 -0.02746335 -0.09724213 0.09651609
0001a0 26 9b d6 3c f8 63 5f 3c 0c 07 87 bd 81 65 c4 bb
       0.026197027 0.013634674 -0.06593141 -0.0059935455
0001b0 24 91 87 bd 4b ac 55 3d a8 38 e0 3c 6c 25 59 be
       -0.0661948 0.052166265 0.027370766 -0.21205682
0001c0 fa 05 d8 bd d1 40 78 be 19 ee 66 be 7d bb e1 bc
       -0.10548015 -0.24243475 -0.22551765 -0.027555222
0001d0 39 37 d3 bc fc 9b e4 bd 82 f6 b8 3d 74 6d 4f be
       -0.025783168 -0.11162564 0.09031393 -0.20256597
0001e0 a9 b9 97 bd 64 11 08 be f9 8d 79 bd 62 4a df bd
       -0.07408459 -0.13287884 -0.06092641 -0.10902859
0001f0 9f fb ca 3d 36 60 05 be 1f ec 35 be 16 f0 78 3c
       0.09911274 -0.13024983 -0.17765854 0.01519396
000200 25 13 9e 3d f3 30 b4 bd 0a 3d 43 bd 37 a1 d3 bc
       0.07718495 -0.08798399 -0.047665633 -0.02583371
000210 e9 ca 69 3d 52 fd 30 3d 29 f4 97 bc cc aa be bd
       0.057078276 0.043210335 -0.018549042 -0.09309921
000220 77 dd 15 be fb bc ab bd dc c8 08 bd ef cb c4 3c
       -0.14635263 -0.083856545 -0.03339468 0.024023024
000230 7f a5 0b be 55 02 0e 3c d9 04 1a bd 15 46 bf bd
       -0.1363735 0.008667548 -0.03760228 -0.09339539
000240 23 2b ef bd ea 16 25 be 20 19 b4 3c 70 c1 56 bd
       -0.116781496 -0.16122022 0.021984637 -0.05243057
000250 be e7 0a 3d 72 a8 72 be 88 74 20 be 90 2c df bd
       0.033912413 -0.2369707 -0.15669453 -0.108971715
000260 fb 19 b8 3d 2f f9 4e bd d2 09 f8 bc 3d 9c 83 be
       0.089893304 -0.05053061 -0.03027812 -0.25705138
000270 13 cc 59 3b a4 20 4d be b6 5c 96 be 90 06 c6 3c
       0.003323321 -0.20031983 -0.29367608 0.024173051
000280 dc e6 ba be 01 90 c0 3e 63 ad 34 3e 06 21 cb 3d
       -0.36504257 0.37609866 0.17644267 0.09918408
000290 ef bd cb 3e 19 77 4d be e5 52 b1 3e ad 67 48 be
       0.39793345 -0.20064963 0.34633556 -0.19570799
0002a0 a1 66 c1 3e dc 3a 02 3f 57 41 92 3e f1 91 16 be
       0.37773612 0.5087106 0.28565475 -0.1470411
0002b0 7f 42 c2 3e e1 db 9e 3e 08 7e e2 bd ad 08 ed 3e
       0.37941357 0.3102713 -0.11059195 0.46295682
0002c0 be 72 86 3e 2a 7f 60 3e 68 bf c8 3e 42 e6 ec 3d
       0.26259416 0.21923509 0.3920853 0.11567356
0002d0 43 f0 b1 3b 5e 4d 00 3e bf 36 76 bd 47 e2 30 3e
       0.0054302528 0.12529513 -0.060110804 0.17273818
0002e0 21 de b9 3e 61 e7 90 3e 99 58 f7 3a a6 7a 98 3e
       0.36302283 0.28301528 0.0018871009 0.29781073
0002f0 a5 c6 1e 3d a7 42 19 3e af fd 6b 3e db dd d2 be
       0.03876366 0.14966832 0.23045991 -0.41184887
000300 f3 16 3b 3d 17 99 e9 bd 14 b9 5c 3c 22 f2 21 bd
       0.045676183 -0.11406153 0.01347186 -0.039537556
000310 fc b8 ec bd 5f 0d 67 bd d3 25 0b be 93 a3 bf bd
       -0.115587205 -0.056409236 -0.13588648 -0.09357371
000320 1a 90 b4 bb 94 c1 1a be 8f c2 1e be 2d 98 07 3e
       -0.0055103423 -0.15112907 -0.15503906 0.13241644
000330 c2 44 88 3c ed 1c a0 bd ca 98 c0 bb d5 3c 06 3e
       0.016634349 -0.07818017 -0.005877589 0.13109143
000340 a9 04 17 be 6b f2 bf bd 04 e7 02 be 84 90 52 bc
       -0.14747871 -0.093724094 -0.12783438 -0.012851838
000350 30 57 c7 bb c5 11 0d be 04 49 fb 3d 22 02 0b be
       -0.0060833916 -0.1377631 0.12269786 -0.13575032
000360 91 01 29 3e 59 37 f9 bd 8d 76 c6 bc 9b 64 07 3d
       0.16504504 -0.1216876 -0.024226451 0.03305493
000370 03 eb a0 bd 15 79 26 3e 14 9a f9 bd aa 89 20 bc
       -0.07857325 0.16257127 -0.12187591 -0.009798447
000380 28 09 c7 be 51 ff e0 3c ee 78 47 3e 6e 8d 47 3e
       -0.38874173 0.027465494 0.19479725 0.19487545
000390 1c 06 95 3d 10 a6 27 be 19 fb 3d 3e 24 a6 13 bd
       0.07276556 -0.16371942 0.18552817 -0.036047116
0003a0 2e fd 21 3e 2c bb b9 3b c2 85 02 3d 0b 99 43 be
       0.15819237 0.0056680646 0.031865843 -0.1910135
0003b0 74 ca 02 3e 4a fa 9b 3d 95 14 1b be 6a d3 da 3d
       0.12772542 0.07616098 -0.1514457 0.10684855
0003c0 74 f1 b4 3c 7a 26 5d 3a c0 df d3 3d 33 22 00 bd
       0.02208779 0.00084362144 0.10345411 -0.031282615
0003d0 2b 53 10 3e fb ac 01 bd ae 14 f3 3d d1 4a 0b be
       0.14094226 -0.031659108 0.11869179 -0.13602759
0003e0 bd bf cb 3c 2c 0a 8f 3e c6 42 68 3e 3c 7f f1 3d
       0.024871701 0.27937448 0.22681722 0.11791846
0003f0 47 20 0e 3e 5a 3b 30 3e 1c 1d 26 3e 67 3a 37 be
       0.138795 0.17210141 0.16222042 -0.17893372

layers.6.bias f4 [16]
000000 3f 94 db 40 d4 c9 14 be dd cc f6 40 80 77 89 bc
       6.8618464 -0.14530116 7.7125077 -0.016780615
000010 0a 3c 00 3c af 9d f5 40 d2 ef 97 3c fd 4b f0 40
       0.007826814 7.6754985 0.018546972 7.509276
000020 41 8b f6 40 e3 cf f1 40 35 5b e3 40 66 9b 23 be
       7.704499 7.556627 7.1048837 -0.15977249
000030 d0 a4 b3 40 07 37 6e be e1 fb f0 be 66 af 37 3d
       5.6138687 -0.23263179 -0.47067168 0.044845007

layers.8.weight f4 [1, 16]
000000 60 ad 8d 3e 8e 95 8e 3d 44 cc f4 3e 47 5f e9 bd
       0.27671337 0.06962119 0.47812092 -0.11395126
000010 0a d4 45 bc a1 4b 1b 3f ce 21 79 be c5 f1 c3 3e
       -0.01207448 0.60662276 -0.24329302 0.38270393
000020 ed 3a 3b 3f 6a 0f 10 3f b7 d5 ac 3e 6a cb 18 be
       0.7313679 0.5627352 0.337568 -0.14921346
000030 8c a1 a6 3e 5d 71 00 3c c7 d0 9f 3e c4 e1 1d 3e
       0.32545125 0.007839528 0.31213972 0.15418154
